…
2019-07-22 09:16:12.655940: I tensorflow/core/common_runtime/gpu/gpu_device.cc:1115] Created TensorFlow device (/job:localhost/replica:0/task:0/device:GPU:0 with 14926 MB memory) -> physical GPU (device: 0, name: Tesla V100-SXM2-16GB, pci bus id: 0000:0a:00.0, compute capability: 7.0)


Model summary:
__________________________________________________________________________________________________
Layer (type)                    Output Shape         Param #     Connected to                     
==================================================================================================
input (InputLayer)              (None, 384, 640, 3)  0                                            
__________________________________________________________________________________________________
zero_padding2d_1 (ZeroPadding2D (None, 390, 646, 3)  0           input[0][0]                      
__________________________________________________________________________________________________
conv2d_1 (Conv2D)               (None, 192, 320, 64) 9408        zero_padding2d_1[0][0]           
__________________________________________________________________________________________________
batch_normalization_1 (BatchNor (None, 192, 320, 64) 256         conv2d_1[0][0]                   
__________________________________________________________________________________________________
activation_1 (Activation)       (None, 192, 320, 64) 0           batch_normalization_1[0][0]      
__________________________________________________________________________________________________
zero_padding2d_2 (ZeroPadding2D (None, 194, 322, 64) 0           activation_1[0][0]               
__________________________________________________________________________________________________
max_pooling2d_1 (MaxPooling2D)  (None, 96, 160, 64)  0           zero_padding2d_2[0][0]           
__________________________________________________________________________________________________
conv2d_2 (Conv2D)               (None, 96, 160, 128) 8192        max_pooling2d_1[0][0]            
__________________________________________________________________________________________________
batch_normalization_2 (BatchNor (None, 96, 160, 128) 512         conv2d_2[0][0]                   
__________________________________________________________________________________________________
activation_2 (Activation)       (None, 96, 160, 128) 0           batch_normalization_2[0][0]      
__________________________________________________________________________________________________
zero_padding2d_3 (ZeroPadding2D (None, 98, 162, 128) 0           activation_2[0][0]               
__________________________________________________________________________________________________
slice_1 (Slice)                 (None, 98, 162, 4)   0           zero_padding2d_3[0][0]           
__________________________________________________________________________________________________
slice_2 (Slice)                 (None, 98, 162, 4)   0           zero_padding2d_3[0][0]           
__________________________________________________________________________________________________
slice_3 (Slice)                 (None, 98, 162, 4)   0           zero_padding2d_3[0][0]           
__________________________________________________________________________________________________
slice_4 (Slice)                 (None, 98, 162, 4)   0           zero_padding2d_3[0][0]           
__________________________________________________________________________________________________
slice_5 (Slice)                 (None, 98, 162, 4)   0           zero_padding2d_3[0][0]           
__________________________________________________________________________________________________
slice_6 (Slice)                 (None, 98, 162, 4)   0           zero_padding2d_3[0][0]           
__________________________________________________________________________________________________
slice_7 (Slice)                 (None, 98, 162, 4)   0           zero_padding2d_3[0][0]           
__________________________________________________________________________________________________
slice_8 (Slice)                 (None, 98, 162, 4)   0           zero_padding2d_3[0][0]           
__________________________________________________________________________________________________
slice_9 (Slice)                 (None, 98, 162, 4)   0           zero_padding2d_3[0][0]           
__________________________________________________________________________________________________
slice_10 (Slice)                (None, 98, 162, 4)   0           zero_padding2d_3[0][0]           
__________________________________________________________________________________________________
slice_11 (Slice)                (None, 98, 162, 4)   0           zero_padding2d_3[0][0]           
__________________________________________________________________________________________________
slice_12 (Slice)                (None, 98, 162, 4)   0           zero_padding2d_3[0][0]           
__________________________________________________________________________________________________
slice_13 (Slice)                (None, 98, 162, 4)   0           zero_padding2d_3[0][0]           
__________________________________________________________________________________________________
slice_14 (Slice)                (None, 98, 162, 4)   0           zero_padding2d_3[0][0]           
__________________________________________________________________________________________________
slice_15 (Slice)                (None, 98, 162, 4)   0           zero_padding2d_3[0][0]           
__________________________________________________________________________________________________
slice_16 (Slice)                (None, 98, 162, 4)   0           zero_padding2d_3[0][0]           
__________________________________________________________________________________________________
slice_17 (Slice)                (None, 98, 162, 4)   0           zero_padding2d_3[0][0]           
__________________________________________________________________________________________________
slice_18 (Slice)                (None, 98, 162, 4)   0           zero_padding2d_3[0][0]           
__________________________________________________________________________________________________
slice_19 (Slice)                (None, 98, 162, 4)   0           zero_padding2d_3[0][0]           
__________________________________________________________________________________________________
slice_20 (Slice)                (None, 98, 162, 4)   0           zero_padding2d_3[0][0]           
__________________________________________________________________________________________________
slice_21 (Slice)                (None, 98, 162, 4)   0           zero_padding2d_3[0][0]           
__________________________________________________________________________________________________
slice_22 (Slice)                (None, 98, 162, 4)   0           zero_padding2d_3[0][0]           
__________________________________________________________________________________________________
slice_23 (Slice)                (None, 98, 162, 4)   0           zero_padding2d_3[0][0]           
__________________________________________________________________________________________________
slice_24 (Slice)                (None, 98, 162, 4)   0           zero_padding2d_3[0][0]           
__________________________________________________________________________________________________
slice_25 (Slice)                (None, 98, 162, 4)   0           zero_padding2d_3[0][0]           
__________________________________________________________________________________________________
slice_26 (Slice)                (None, 98, 162, 4)   0           zero_padding2d_3[0][0]           
__________________________________________________________________________________________________
slice_27 (Slice)                (None, 98, 162, 4)   0           zero_padding2d_3[0][0]           
__________________________________________________________________________________________________
slice_28 (Slice)                (None, 98, 162, 4)   0           zero_padding2d_3[0][0]           
__________________________________________________________________________________________________
slice_29 (Slice)                (None, 98, 162, 4)   0           zero_padding2d_3[0][0]           
__________________________________________________________________________________________________
slice_30 (Slice)                (None, 98, 162, 4)   0           zero_padding2d_3[0][0]           
__________________________________________________________________________________________________
slice_31 (Slice)                (None, 98, 162, 4)   0           zero_padding2d_3[0][0]           
__________________________________________________________________________________________________
slice_32 (Slice)                (None, 98, 162, 4)   0           zero_padding2d_3[0][0]           
__________________________________________________________________________________________________
conv2d_3 (Conv2D)               (None, 96, 160, 4)   144         slice_1[0][0]                    
__________________________________________________________________________________________________
conv2d_4 (Conv2D)               (None, 96, 160, 4)   144         slice_2[0][0]                    
__________________________________________________________________________________________________
conv2d_5 (Conv2D)               (None, 96, 160, 4)   144         slice_3[0][0]                    
__________________________________________________________________________________________________
conv2d_6 (Conv2D)               (None, 96, 160, 4)   144         slice_4[0][0]                    
__________________________________________________________________________________________________
conv2d_7 (Conv2D)               (None, 96, 160, 4)   144         slice_5[0][0]                    
__________________________________________________________________________________________________
conv2d_8 (Conv2D)               (None, 96, 160, 4)   144         slice_6[0][0]                    
__________________________________________________________________________________________________
conv2d_9 (Conv2D)               (None, 96, 160, 4)   144         slice_7[0][0]                    
__________________________________________________________________________________________________
conv2d_10 (Conv2D)              (None, 96, 160, 4)   144         slice_8[0][0]                    
__________________________________________________________________________________________________
conv2d_11 (Conv2D)              (None, 96, 160, 4)   144         slice_9[0][0]                    
__________________________________________________________________________________________________
conv2d_12 (Conv2D)              (None, 96, 160, 4)   144         slice_10[0][0]                   
__________________________________________________________________________________________________
conv2d_13 (Conv2D)              (None, 96, 160, 4)   144         slice_11[0][0]                   
__________________________________________________________________________________________________
conv2d_14 (Conv2D)              (None, 96, 160, 4)   144         slice_12[0][0]                   
__________________________________________________________________________________________________
conv2d_15 (Conv2D)              (None, 96, 160, 4)   144         slice_13[0][0]                   
__________________________________________________________________________________________________
conv2d_16 (Conv2D)              (None, 96, 160, 4)   144         slice_14[0][0]                   
__________________________________________________________________________________________________
conv2d_17 (Conv2D)              (None, 96, 160, 4)   144         slice_15[0][0]                   
__________________________________________________________________________________________________
conv2d_18 (Conv2D)              (None, 96, 160, 4)   144         slice_16[0][0]                   
__________________________________________________________________________________________________
conv2d_19 (Conv2D)              (None, 96, 160, 4)   144         slice_17[0][0]                   
__________________________________________________________________________________________________
conv2d_20 (Conv2D)              (None, 96, 160, 4)   144         slice_18[0][0]                   
__________________________________________________________________________________________________
conv2d_21 (Conv2D)              (None, 96, 160, 4)   144         slice_19[0][0]                   
__________________________________________________________________________________________________
conv2d_22 (Conv2D)              (None, 96, 160, 4)   144         slice_20[0][0]                   
__________________________________________________________________________________________________
conv2d_23 (Conv2D)              (None, 96, 160, 4)   144         slice_21[0][0]                   
__________________________________________________________________________________________________
conv2d_24 (Conv2D)              (None, 96, 160, 4)   144         slice_22[0][0]                   
__________________________________________________________________________________________________
conv2d_25 (Conv2D)              (None, 96, 160, 4)   144         slice_23[0][0]                   
__________________________________________________________________________________________________
conv2d_26 (Conv2D)              (None, 96, 160, 4)   144         slice_24[0][0]                   
__________________________________________________________________________________________________
conv2d_27 (Conv2D)              (None, 96, 160, 4)   144         slice_25[0][0]                   
__________________________________________________________________________________________________
conv2d_28 (Conv2D)              (None, 96, 160, 4)   144         slice_26[0][0]                   
__________________________________________________________________________________________________
conv2d_29 (Conv2D)              (None, 96, 160, 4)   144         slice_27[0][0]                   
__________________________________________________________________________________________________
conv2d_30 (Conv2D)              (None, 96, 160, 4)   144         slice_28[0][0]                   
__________________________________________________________________________________________________
conv2d_31 (Conv2D)              (None, 96, 160, 4)   144         slice_29[0][0]                   
__________________________________________________________________________________________________
conv2d_32 (Conv2D)              (None, 96, 160, 4)   144         slice_30[0][0]                   
__________________________________________________________________________________________________
conv2d_33 (Conv2D)              (None, 96, 160, 4)   144         slice_31[0][0]                   
__________________________________________________________________________________________________
conv2d_34 (Conv2D)              (None, 96, 160, 4)   144         slice_32[0][0]                   
__________________________________________________________________________________________________
concatenate_1 (Concatenate)     (None, 96, 160, 128) 0           conv2d_3[0][0]                   
                                                                 conv2d_4[0][0]                   
                                                                 conv2d_5[0][0]                   
                                                                 conv2d_6[0][0]                   
                                                                 conv2d_7[0][0]                   
…
                                                                 conv2d_30[0][0]                  
                                                                 conv2d_31[0][0]                  
                                                                 conv2d_32[0][0]                  
                                                                 conv2d_33[0][0]                  
                                                                 conv2d_34[0][0]                  
__________________________________________________________________________________________________
batch_normalization_3 (BatchNor (None, 96, 160, 128) 512         concatenate_1[0][0]              
__________________________________________________________________________________________________
activation_3 (Activation)       (None, 96, 160, 128) 0           batch_normalization_3[0][0]      
__________________________________________________________________________________________________
conv2d_35 (Conv2D)              (None, 96, 160, 256) 32768       activation_3[0][0]               
__________________________________________________________________________________________________
batch_normalization_4 (BatchNor (None, 96, 160, 256) 1024        conv2d_35[0][0]                  
__________________________________________________________________________________________________
lambda_1 (Lambda)               (None, 1, 1, 256)    0           batch_normalization_4[0][0]      
__________________________________________________________________________________________________
conv2d_37 (Conv2D)              (None, 1, 1, 16)     4112        lambda_1[0][0]                   
__________________________________________________________________________________________________
activation_4 (Activation)       (None, 1, 1, 16)     0           conv2d_37[0][0]                  
__________________________________________________________________________________________________
conv2d_38 (Conv2D)              (None, 1, 1, 256)    4352        activation_4[0][0]               
__________________________________________________________________________________________________
activation_5 (Activation)       (None, 1, 1, 256)    0           conv2d_38[0][0]                  
__________________________________________________________________________________________________
conv2d_36 (Conv2D)              (None, 96, 160, 256) 16384       max_pooling2d_1[0][0]            
__________________________________________________________________________________________________
multiply_1 (Multiply)           (None, 96, 160, 256) 0           batch_normalization_4[0][0]      
                                                                 activation_5[0][0]               
__________________________________________________________________________________________________
batch_normalization_5 (BatchNor (None, 96, 160, 256) 1024        conv2d_36[0][0]                  
__________________________________________________________________________________________________
add_1 (Add)                     (None, 96, 160, 256) 0           multiply_1[0][0]                 
                                                                 batch_normalization_5[0][0]      
__________________________________________________________________________________________________
activation_6 (Activation)       (None, 96, 160, 256) 0           add_1[0][0]                      
__________________________________________________________________________________________________
conv2d_39 (Conv2D)              (None, 96, 160, 128) 32768       activation_6[0][0]               
__________________________________________________________________________________________________
batch_normalization_6 (BatchNor (None, 96, 160, 128) 512         conv2d_39[0][0]                  
__________________________________________________________________________________________________
activation_7 (Activation)       (None, 96, 160, 128) 0           batch_normalization_6[0][0]      
__________________________________________________________________________________________________
zero_padding2d_4 (ZeroPadding2D (None, 98, 162, 128) 0           activation_7[0][0]               
__________________________________________________________________________________________________
slice_33 (Slice)                (None, 98, 162, 4)   0           zero_padding2d_4[0][0]           
__________________________________________________________________________________________________
slice_34 (Slice)                (None, 98, 162, 4)   0           zero_padding2d_4[0][0]           
__________________________________________________________________________________________________
slice_35 (Slice)                (None, 98, 162, 4)   0           zero_padding2d_4[0][0]           
__________________________________________________________________________________________________
slice_36 (Slice)                (None, 98, 162, 4)   0           zero_padding2d_4[0][0]           
__________________________________________________________________________________________________
slice_37 (Slice)                (None, 98, 162, 4)   0           zero_padding2d_4[0][0]           
__________________________________________________________________________________________________
slice_38 (Slice)                (None, 98, 162, 4)   0           zero_padding2d_4[0][0]           
__________________________________________________________________________________________________
slice_39 (Slice)                (None, 98, 162, 4)   0           zero_padding2d_4[0][0]           
__________________________________________________________________________________________________
slice_40 (Slice)                (None, 98, 162, 4)   0           zero_padding2d_4[0][0]           
__________________________________________________________________________________________________
slice_41 (Slice)                (None, 98, 162, 4)   0           zero_padding2d_4[0][0]           
__________________________________________________________________________________________________
slice_42 (Slice)                (None, 98, 162, 4)   0           zero_padding2d_4[0][0]           
__________________________________________________________________________________________________
slice_43 (Slice)                (None, 98, 162, 4)   0           zero_padding2d_4[0][0]           
__________________________________________________________________________________________________
slice_44 (Slice)                (None, 98, 162, 4)   0           zero_padding2d_4[0][0]           
__________________________________________________________________________________________________
slice_45 (Slice)                (None, 98, 162, 4)   0           zero_padding2d_4[0][0]           
__________________________________________________________________________________________________
slice_46 (Slice)                (None, 98, 162, 4)   0           zero_padding2d_4[0][0]           
__________________________________________________________________________________________________
slice_47 (Slice)                (None, 98, 162, 4)   0           zero_padding2d_4[0][0]           
__________________________________________________________________________________________________
slice_48 (Slice)                (None, 98, 162, 4)   0           zero_padding2d_4[0][0]           
__________________________________________________________________________________________________
slice_49 (Slice)                (None, 98, 162, 4)   0           zero_padding2d_4[0][0]           
__________________________________________________________________________________________________
slice_50 (Slice)                (None, 98, 162, 4)   0           zero_padding2d_4[0][0]           
__________________________________________________________________________________________________
slice_51 (Slice)                (None, 98, 162, 4)   0           zero_padding2d_4[0][0]           
__________________________________________________________________________________________________
slice_52 (Slice)                (None, 98, 162, 4)   0           zero_padding2d_4[0][0]           
__________________________________________________________________________________________________
slice_53 (Slice)                (None, 98, 162, 4)   0           zero_padding2d_4[0][0]           
__________________________________________________________________________________________________
slice_54 (Slice)                (None, 98, 162, 4)   0           zero_padding2d_4[0][0]           
__________________________________________________________________________________________________
slice_55 (Slice)                (None, 98, 162, 4)   0           zero_padding2d_4[0][0]           
__________________________________________________________________________________________________
slice_56 (Slice)                (None, 98, 162, 4)   0           zero_padding2d_4[0][0]           
__________________________________________________________________________________________________
slice_57 (Slice)                (None, 98, 162, 4)   0           zero_padding2d_4[0][0]           
__________________________________________________________________________________________________
slice_58 (Slice)                (None, 98, 162, 4)   0           zero_padding2d_4[0][0]           
__________________________________________________________________________________________________
slice_59 (Slice)                (None, 98, 162, 4)   0           zero_padding2d_4[0][0]           
__________________________________________________________________________________________________
slice_60 (Slice)                (None, 98, 162, 4)   0           zero_padding2d_4[0][0]           
__________________________________________________________________________________________________
slice_61 (Slice)                (None, 98, 162, 4)   0           zero_padding2d_4[0][0]           
__________________________________________________________________________________________________
slice_62 (Slice)                (None, 98, 162, 4)   0           zero_padding2d_4[0][0]           
__________________________________________________________________________________________________
slice_63 (Slice)                (None, 98, 162, 4)   0           zero_padding2d_4[0][0]           
__________________________________________________________________________________________________
slice_64 (Slice)                (None, 98, 162, 4)   0           zero_padding2d_4[0][0]           
__________________________________________________________________________________________________
conv2d_40 (Conv2D)              (None, 96, 160, 4)   144         slice_33[0][0]                   
__________________________________________________________________________________________________
conv2d_41 (Conv2D)              (None, 96, 160, 4)   144         slice_34[0][0]                   
__________________________________________________________________________________________________
conv2d_42 (Conv2D)              (None, 96, 160, 4)   144         slice_35[0][0]                   
__________________________________________________________________________________________________
conv2d_43 (Conv2D)              (None, 96, 160, 4)   144         slice_36[0][0]                   
__________________________________________________________________________________________________
conv2d_44 (Conv2D)              (None, 96, 160, 4)   144         slice_37[0][0]                   
__________________________________________________________________________________________________
conv2d_45 (Conv2D)              (None, 96, 160, 4)   144         slice_38[0][0]                   
__________________________________________________________________________________________________
conv2d_46 (Conv2D)              (None, 96, 160, 4)   144         slice_39[0][0]                   
__________________________________________________________________________________________________
conv2d_47 (Conv2D)              (None, 96, 160, 4)   144         slice_40[0][0]                   
__________________________________________________________________________________________________
conv2d_48 (Conv2D)              (None, 96, 160, 4)   144         slice_41[0][0]                   
__________________________________________________________________________________________________
conv2d_49 (Conv2D)              (None, 96, 160, 4)   144         slice_42[0][0]                   
__________________________________________________________________________________________________
conv2d_50 (Conv2D)              (None, 96, 160, 4)   144         slice_43[0][0]                   
__________________________________________________________________________________________________
conv2d_51 (Conv2D)              (None, 96, 160, 4)   144         slice_44[0][0]                   
__________________________________________________________________________________________________
conv2d_52 (Conv2D)              (None, 96, 160, 4)   144         slice_45[0][0]                   
__________________________________________________________________________________________________
conv2d_53 (Conv2D)              (None, 96, 160, 4)   144         slice_46[0][0]                   
__________________________________________________________________________________________________
conv2d_54 (Conv2D)              (None, 96, 160, 4)   144         slice_47[0][0]                   
__________________________________________________________________________________________________
conv2d_55 (Conv2D)              (None, 96, 160, 4)   144         slice_48[0][0]                   
__________________________________________________________________________________________________
conv2d_56 (Conv2D)              (None, 96, 160, 4)   144         slice_49[0][0]                   
__________________________________________________________________________________________________
conv2d_57 (Conv2D)              (None, 96, 160, 4)   144         slice_50[0][0]                   
__________________________________________________________________________________________________
conv2d_58 (Conv2D)              (None, 96, 160, 4)   144         slice_51[0][0]                   
__________________________________________________________________________________________________
conv2d_59 (Conv2D)              (None, 96, 160, 4)   144         slice_52[0][0]                   
__________________________________________________________________________________________________
conv2d_60 (Conv2D)              (None, 96, 160, 4)   144         slice_53[0][0]                   
__________________________________________________________________________________________________
conv2d_61 (Conv2D)              (None, 96, 160, 4)   144         slice_54[0][0]                   
__________________________________________________________________________________________________
conv2d_62 (Conv2D)              (None, 96, 160, 4)   144         slice_55[0][0]                   
__________________________________________________________________________________________________
conv2d_63 (Conv2D)              (None, 96, 160, 4)   144         slice_56[0][0]                   
__________________________________________________________________________________________________
conv2d_64 (Conv2D)              (None, 96, 160, 4)   144         slice_57[0][0]                   
__________________________________________________________________________________________________
conv2d_65 (Conv2D)              (None, 96, 160, 4)   144         slice_58[0][0]                   
__________________________________________________________________________________________________
conv2d_66 (Conv2D)              (None, 96, 160, 4)   144         slice_59[0][0]                   
__________________________________________________________________________________________________
conv2d_67 (Conv2D)              (None, 96, 160, 4)   144         slice_60[0][0]                   
__________________________________________________________________________________________________
conv2d_68 (Conv2D)              (None, 96, 160, 4)   144         slice_61[0][0]                   
__________________________________________________________________________________________________
conv2d_69 (Conv2D)              (None, 96, 160, 4)   144         slice_62[0][0]                   
__________________________________________________________________________________________________
conv2d_70 (Conv2D)              (None, 96, 160, 4)   144         slice_63[0][0]                   
__________________________________________________________________________________________________
conv2d_71 (Conv2D)              (None, 96, 160, 4)   144         slice_64[0][0]                   
__________________________________________________________________________________________________
concatenate_2 (Concatenate)     (None, 96, 160, 128) 0           conv2d_40[0][0]                  
                                                                 conv2d_41[0][0]                  
                                                                 conv2d_42[0][0]                  
                                                                 conv2d_43[0][0]                  
                                                                 conv2d_44[0][0]                  
…
                                                                 conv2d_67[0][0]                  
                                                                 conv2d_68[0][0]                  
                                                                 conv2d_69[0][0]                  
                                                                 conv2d_70[0][0]                  
                                                                 conv2d_71[0][0]                  
__________________________________________________________________________________________________
batch_normalization_7 (BatchNor (None, 96, 160, 128) 512         concatenate_2[0][0]              
__________________________________________________________________________________________________
activation_8 (Activation)       (None, 96, 160, 128) 0           batch_normalization_7[0][0]      
__________________________________________________________________________________________________
conv2d_72 (Conv2D)              (None, 96, 160, 256) 32768       activation_8[0][0]               
__________________________________________________________________________________________________
batch_normalization_8 (BatchNor (None, 96, 160, 256) 1024        conv2d_72[0][0]                  
__________________________________________________________________________________________________
lambda_2 (Lambda)               (None, 1, 1, 256)    0           batch_normalization_8[0][0]      
__________________________________________________________________________________________________
conv2d_73 (Conv2D)              (None, 1, 1, 16)     4112        lambda_2[0][0]                   
__________________________________________________________________________________________________
activation_9 (Activation)       (None, 1, 1, 16)     0           conv2d_73[0][0]                  
__________________________________________________________________________________________________
conv2d_74 (Conv2D)              (None, 1, 1, 256)    4352        activation_9[0][0]               
__________________________________________________________________________________________________
activation_10 (Activation)      (None, 1, 1, 256)    0           conv2d_74[0][0]                  
__________________________________________________________________________________________________
multiply_2 (Multiply)           (None, 96, 160, 256) 0           batch_normalization_8[0][0]      
                                                                 activation_10[0][0]              
__________________________________________________________________________________________________
add_2 (Add)                     (None, 96, 160, 256) 0           multiply_2[0][0]                 
                                                                 activation_6[0][0]               
__________________________________________________________________________________________________
activation_11 (Activation)      (None, 96, 160, 256) 0           add_2[0][0]                      
__________________________________________________________________________________________________
conv2d_75 (Conv2D)              (None, 96, 160, 128) 32768       activation_11[0][0]              
__________________________________________________________________________________________________
batch_normalization_9 (BatchNor (None, 96, 160, 128) 512         conv2d_75[0][0]                  
__________________________________________________________________________________________________
activation_12 (Activation)      (None, 96, 160, 128) 0           batch_normalization_9[0][0]      
__________________________________________________________________________________________________
zero_padding2d_5 (ZeroPadding2D (None, 98, 162, 128) 0           activation_12[0][0]              
__________________________________________________________________________________________________
slice_65 (Slice)                (None, 98, 162, 4)   0           zero_padding2d_5[0][0]           
__________________________________________________________________________________________________
slice_66 (Slice)                (None, 98, 162, 4)   0           zero_padding2d_5[0][0]           
__________________________________________________________________________________________________
slice_67 (Slice)                (None, 98, 162, 4)   0           zero_padding2d_5[0][0]           
__________________________________________________________________________________________________
slice_68 (Slice)                (None, 98, 162, 4)   0           zero_padding2d_5[0][0]           
__________________________________________________________________________________________________
slice_69 (Slice)                (None, 98, 162, 4)   0           zero_padding2d_5[0][0]           
__________________________________________________________________________________________________
slice_70 (Slice)                (None, 98, 162, 4)   0           zero_padding2d_5[0][0]           
__________________________________________________________________________________________________
slice_71 (Slice)                (None, 98, 162, 4)   0           zero_padding2d_5[0][0]           
__________________________________________________________________________________________________
slice_72 (Slice)                (None, 98, 162, 4)   0           zero_padding2d_5[0][0]           
__________________________________________________________________________________________________
slice_73 (Slice)                (None, 98, 162, 4)   0           zero_padding2d_5[0][0]           
__________________________________________________________________________________________________
slice_74 (Slice)                (None, 98, 162, 4)   0           zero_padding2d_5[0][0]           
__________________________________________________________________________________________________
slice_75 (Slice)                (None, 98, 162, 4)   0           zero_padding2d_5[0][0]           
__________________________________________________________________________________________________
slice_76 (Slice)                (None, 98, 162, 4)   0           zero_padding2d_5[0][0]           
__________________________________________________________________________________________________
slice_77 (Slice)                (None, 98, 162, 4)   0           zero_padding2d_5[0][0]           
__________________________________________________________________________________________________
slice_78 (Slice)                (None, 98, 162, 4)   0           zero_padding2d_5[0][0]           
__________________________________________________________________________________________________
slice_79 (Slice)                (None, 98, 162, 4)   0           zero_padding2d_5[0][0]           
__________________________________________________________________________________________________
slice_80 (Slice)                (None, 98, 162, 4)   0           zero_padding2d_5[0][0]           
__________________________________________________________________________________________________
slice_81 (Slice)                (None, 98, 162, 4)   0           zero_padding2d_5[0][0]           
__________________________________________________________________________________________________
slice_82 (Slice)                (None, 98, 162, 4)   0           zero_padding2d_5[0][0]           
__________________________________________________________________________________________________
slice_83 (Slice)                (None, 98, 162, 4)   0           zero_padding2d_5[0][0]           
__________________________________________________________________________________________________
slice_84 (Slice)                (None, 98, 162, 4)   0           zero_padding2d_5[0][0]           
__________________________________________________________________________________________________
slice_85 (Slice)                (None, 98, 162, 4)   0           zero_padding2d_5[0][0]           
__________________________________________________________________________________________________
slice_86 (Slice)                (None, 98, 162, 4)   0           zero_padding2d_5[0][0]           
__________________________________________________________________________________________________
slice_87 (Slice)                (None, 98, 162, 4)   0           zero_padding2d_5[0][0]           
__________________________________________________________________________________________________
slice_88 (Slice)                (None, 98, 162, 4)   0           zero_padding2d_5[0][0]           
__________________________________________________________________________________________________
slice_89 (Slice)                (None, 98, 162, 4)   0           zero_padding2d_5[0][0]           
__________________________________________________________________________________________________
slice_90 (Slice)                (None, 98, 162, 4)   0           zero_padding2d_5[0][0]           
__________________________________________________________________________________________________
slice_91 (Slice)                (None, 98, 162, 4)   0           zero_padding2d_5[0][0]           
__________________________________________________________________________________________________
slice_92 (Slice)                (None, 98, 162, 4)   0           zero_padding2d_5[0][0]           
__________________________________________________________________________________________________
slice_93 (Slice)                (None, 98, 162, 4)   0           zero_padding2d_5[0][0]           
__________________________________________________________________________________________________
slice_94 (Slice)                (None, 98, 162, 4)   0           zero_padding2d_5[0][0]           
__________________________________________________________________________________________________
slice_95 (Slice)                (None, 98, 162, 4)   0           zero_padding2d_5[0][0]           
__________________________________________________________________________________________________
slice_96 (Slice)                (None, 98, 162, 4)   0           zero_padding2d_5[0][0]           
__________________________________________________________________________________________________
conv2d_76 (Conv2D)              (None, 96, 160, 4)   144         slice_65[0][0]                   
__________________________________________________________________________________________________
conv2d_77 (Conv2D)              (None, 96, 160, 4)   144         slice_66[0][0]                   
__________________________________________________________________________________________________
conv2d_78 (Conv2D)              (None, 96, 160, 4)   144         slice_67[0][0]                   
__________________________________________________________________________________________________
conv2d_79 (Conv2D)              (None, 96, 160, 4)   144         slice_68[0][0]                   
__________________________________________________________________________________________________
conv2d_80 (Conv2D)              (None, 96, 160, 4)   144         slice_69[0][0]                   
__________________________________________________________________________________________________
conv2d_81 (Conv2D)              (None, 96, 160, 4)   144         slice_70[0][0]                   
__________________________________________________________________________________________________
conv2d_82 (Conv2D)              (None, 96, 160, 4)   144         slice_71[0][0]                   
__________________________________________________________________________________________________
conv2d_83 (Conv2D)              (None, 96, 160, 4)   144         slice_72[0][0]                   
__________________________________________________________________________________________________
conv2d_84 (Conv2D)              (None, 96, 160, 4)   144         slice_73[0][0]                   
__________________________________________________________________________________________________
conv2d_85 (Conv2D)              (None, 96, 160, 4)   144         slice_74[0][0]                   
__________________________________________________________________________________________________
conv2d_86 (Conv2D)              (None, 96, 160, 4)   144         slice_75[0][0]                   
__________________________________________________________________________________________________
conv2d_87 (Conv2D)              (None, 96, 160, 4)   144         slice_76[0][0]                   
__________________________________________________________________________________________________
conv2d_88 (Conv2D)              (None, 96, 160, 4)   144         slice_77[0][0]                   
__________________________________________________________________________________________________
conv2d_89 (Conv2D)              (None, 96, 160, 4)   144         slice_78[0][0]                   
__________________________________________________________________________________________________
conv2d_90 (Conv2D)              (None, 96, 160, 4)   144         slice_79[0][0]                   
__________________________________________________________________________________________________
conv2d_91 (Conv2D)              (None, 96, 160, 4)   144         slice_80[0][0]                   
__________________________________________________________________________________________________
conv2d_92 (Conv2D)              (None, 96, 160, 4)   144         slice_81[0][0]                   
__________________________________________________________________________________________________
conv2d_93 (Conv2D)              (None, 96, 160, 4)   144         slice_82[0][0]                   
__________________________________________________________________________________________________
conv2d_94 (Conv2D)              (None, 96, 160, 4)   144         slice_83[0][0]                   
__________________________________________________________________________________________________
conv2d_95 (Conv2D)              (None, 96, 160, 4)   144         slice_84[0][0]                   
__________________________________________________________________________________________________
conv2d_96 (Conv2D)              (None, 96, 160, 4)   144         slice_85[0][0]                   
__________________________________________________________________________________________________
conv2d_97 (Conv2D)              (None, 96, 160, 4)   144         slice_86[0][0]                   
__________________________________________________________________________________________________
conv2d_98 (Conv2D)              (None, 96, 160, 4)   144         slice_87[0][0]                   
__________________________________________________________________________________________________
conv2d_99 (Conv2D)              (None, 96, 160, 4)   144         slice_88[0][0]                   
__________________________________________________________________________________________________
conv2d_100 (Conv2D)             (None, 96, 160, 4)   144         slice_89[0][0]                   
__________________________________________________________________________________________________
conv2d_101 (Conv2D)             (None, 96, 160, 4)   144         slice_90[0][0]                   
__________________________________________________________________________________________________
conv2d_102 (Conv2D)             (None, 96, 160, 4)   144         slice_91[0][0]                   
__________________________________________________________________________________________________
conv2d_103 (Conv2D)             (None, 96, 160, 4)   144         slice_92[0][0]                   
__________________________________________________________________________________________________
conv2d_104 (Conv2D)             (None, 96, 160, 4)   144         slice_93[0][0]                   
__________________________________________________________________________________________________
conv2d_105 (Conv2D)             (None, 96, 160, 4)   144         slice_94[0][0]                   
__________________________________________________________________________________________________
conv2d_106 (Conv2D)             (None, 96, 160, 4)   144         slice_95[0][0]                   
__________________________________________________________________________________________________
conv2d_107 (Conv2D)             (None, 96, 160, 4)   144         slice_96[0][0]                   
__________________________________________________________________________________________________
concatenate_3 (Concatenate)     (None, 96, 160, 128) 0           conv2d_76[0][0]                  
                                                                 conv2d_77[0][0]                  
                                                                 conv2d_78[0][0]                  
                                                                 conv2d_79[0][0]                  
                                                                 conv2d_80[0][0]                  
…
                                                                 conv2d_103[0][0]                 
                                                                 conv2d_104[0][0]                 
                                                                 conv2d_105[0][0]                 
                                                                 conv2d_106[0][0]                 
                                                                 conv2d_107[0][0]                 
__________________________________________________________________________________________________
batch_normalization_10 (BatchNo (None, 96, 160, 128) 512         concatenate_3[0][0]              
__________________________________________________________________________________________________
activation_13 (Activation)      (None, 96, 160, 128) 0           batch_normalization_10[0][0]     
__________________________________________________________________________________________________
conv2d_108 (Conv2D)             (None, 96, 160, 256) 32768       activation_13[0][0]              
__________________________________________________________________________________________________
batch_normalization_11 (BatchNo (None, 96, 160, 256) 1024        conv2d_108[0][0]                 
__________________________________________________________________________________________________
lambda_3 (Lambda)               (None, 1, 1, 256)    0           batch_normalization_11[0][0]     
__________________________________________________________________________________________________
conv2d_109 (Conv2D)             (None, 1, 1, 16)     4112        lambda_3[0][0]                   
__________________________________________________________________________________________________
activation_14 (Activation)      (None, 1, 1, 16)     0           conv2d_109[0][0]                 
__________________________________________________________________________________________________
conv2d_110 (Conv2D)             (None, 1, 1, 256)    4352        activation_14[0][0]              
__________________________________________________________________________________________________
activation_15 (Activation)      (None, 1, 1, 256)    0           conv2d_110[0][0]                 
__________________________________________________________________________________________________
multiply_3 (Multiply)           (None, 96, 160, 256) 0           batch_normalization_11[0][0]     
                                                                 activation_15[0][0]              
__________________________________________________________________________________________________
add_3 (Add)                     (None, 96, 160, 256) 0           multiply_3[0][0]                 
                                                                 activation_11[0][0]              
__________________________________________________________________________________________________
activation_16 (Activation)      (None, 96, 160, 256) 0           add_3[0][0]                      
__________________________________________________________________________________________________
conv2d_111 (Conv2D)             (None, 96, 160, 256) 65536       activation_16[0][0]              
__________________________________________________________________________________________________
batch_normalization_12 (BatchNo (None, 96, 160, 256) 1024        conv2d_111[0][0]                 
__________________________________________________________________________________________________
activation_17 (Activation)      (None, 96, 160, 256) 0           batch_normalization_12[0][0]     
__________________________________________________________________________________________________
zero_padding2d_6 (ZeroPadding2D (None, 98, 162, 256) 0           activation_17[0][0]              
__________________________________________________________________________________________________
slice_97 (Slice)                (None, 98, 162, 8)   0           zero_padding2d_6[0][0]           
__________________________________________________________________________________________________
slice_98 (Slice)                (None, 98, 162, 8)   0           zero_padding2d_6[0][0]           
__________________________________________________________________________________________________
slice_99 (Slice)                (None, 98, 162, 8)   0           zero_padding2d_6[0][0]           
__________________________________________________________________________________________________
slice_100 (Slice)               (None, 98, 162, 8)   0           zero_padding2d_6[0][0]           
__________________________________________________________________________________________________
slice_101 (Slice)               (None, 98, 162, 8)   0           zero_padding2d_6[0][0]           
__________________________________________________________________________________________________
slice_102 (Slice)               (None, 98, 162, 8)   0           zero_padding2d_6[0][0]           
__________________________________________________________________________________________________
slice_103 (Slice)               (None, 98, 162, 8)   0           zero_padding2d_6[0][0]           
__________________________________________________________________________________________________
slice_104 (Slice)               (None, 98, 162, 8)   0           zero_padding2d_6[0][0]           
__________________________________________________________________________________________________
slice_105 (Slice)               (None, 98, 162, 8)   0           zero_padding2d_6[0][0]           
__________________________________________________________________________________________________
slice_106 (Slice)               (None, 98, 162, 8)   0           zero_padding2d_6[0][0]           
__________________________________________________________________________________________________
slice_107 (Slice)               (None, 98, 162, 8)   0           zero_padding2d_6[0][0]           
__________________________________________________________________________________________________
slice_108 (Slice)               (None, 98, 162, 8)   0           zero_padding2d_6[0][0]           
__________________________________________________________________________________________________
slice_109 (Slice)               (None, 98, 162, 8)   0           zero_padding2d_6[0][0]           
__________________________________________________________________________________________________
slice_110 (Slice)               (None, 98, 162, 8)   0           zero_padding2d_6[0][0]           
__________________________________________________________________________________________________
slice_111 (Slice)               (None, 98, 162, 8)   0           zero_padding2d_6[0][0]           
__________________________________________________________________________________________________
slice_112 (Slice)               (None, 98, 162, 8)   0           zero_padding2d_6[0][0]           
__________________________________________________________________________________________________
slice_113 (Slice)               (None, 98, 162, 8)   0           zero_padding2d_6[0][0]           
__________________________________________________________________________________________________
slice_114 (Slice)               (None, 98, 162, 8)   0           zero_padding2d_6[0][0]           
__________________________________________________________________________________________________
slice_115 (Slice)               (None, 98, 162, 8)   0           zero_padding2d_6[0][0]           
__________________________________________________________________________________________________
slice_116 (Slice)               (None, 98, 162, 8)   0           zero_padding2d_6[0][0]           
__________________________________________________________________________________________________
slice_117 (Slice)               (None, 98, 162, 8)   0           zero_padding2d_6[0][0]           
__________________________________________________________________________________________________
slice_118 (Slice)               (None, 98, 162, 8)   0           zero_padding2d_6[0][0]           
__________________________________________________________________________________________________
slice_119 (Slice)               (None, 98, 162, 8)   0           zero_padding2d_6[0][0]           
__________________________________________________________________________________________________
slice_120 (Slice)               (None, 98, 162, 8)   0           zero_padding2d_6[0][0]           
__________________________________________________________________________________________________
slice_121 (Slice)               (None, 98, 162, 8)   0           zero_padding2d_6[0][0]           
__________________________________________________________________________________________________
slice_122 (Slice)               (None, 98, 162, 8)   0           zero_padding2d_6[0][0]           
__________________________________________________________________________________________________
slice_123 (Slice)               (None, 98, 162, 8)   0           zero_padding2d_6[0][0]           
__________________________________________________________________________________________________
slice_124 (Slice)               (None, 98, 162, 8)   0           zero_padding2d_6[0][0]           
__________________________________________________________________________________________________
slice_125 (Slice)               (None, 98, 162, 8)   0           zero_padding2d_6[0][0]           
__________________________________________________________________________________________________
slice_126 (Slice)               (None, 98, 162, 8)   0           zero_padding2d_6[0][0]           
__________________________________________________________________________________________________
slice_127 (Slice)               (None, 98, 162, 8)   0           zero_padding2d_6[0][0]           
__________________________________________________________________________________________________
slice_128 (Slice)               (None, 98, 162, 8)   0           zero_padding2d_6[0][0]           
__________________________________________________________________________________________________
conv2d_112 (Conv2D)             (None, 48, 80, 8)    576         slice_97[0][0]                   
__________________________________________________________________________________________________
conv2d_113 (Conv2D)             (None, 48, 80, 8)    576         slice_98[0][0]                   
__________________________________________________________________________________________________
conv2d_114 (Conv2D)             (None, 48, 80, 8)    576         slice_99[0][0]                   
__________________________________________________________________________________________________
conv2d_115 (Conv2D)             (None, 48, 80, 8)    576         slice_100[0][0]                  
__________________________________________________________________________________________________
conv2d_116 (Conv2D)             (None, 48, 80, 8)    576         slice_101[0][0]                  
__________________________________________________________________________________________________
conv2d_117 (Conv2D)             (None, 48, 80, 8)    576         slice_102[0][0]                  
__________________________________________________________________________________________________
conv2d_118 (Conv2D)             (None, 48, 80, 8)    576         slice_103[0][0]                  
__________________________________________________________________________________________________
conv2d_119 (Conv2D)             (None, 48, 80, 8)    576         slice_104[0][0]                  
__________________________________________________________________________________________________
conv2d_120 (Conv2D)             (None, 48, 80, 8)    576         slice_105[0][0]                  
__________________________________________________________________________________________________
conv2d_121 (Conv2D)             (None, 48, 80, 8)    576         slice_106[0][0]                  
__________________________________________________________________________________________________
conv2d_122 (Conv2D)             (None, 48, 80, 8)    576         slice_107[0][0]                  
__________________________________________________________________________________________________
conv2d_123 (Conv2D)             (None, 48, 80, 8)    576         slice_108[0][0]                  
__________________________________________________________________________________________________
conv2d_124 (Conv2D)             (None, 48, 80, 8)    576         slice_109[0][0]                  
__________________________________________________________________________________________________
conv2d_125 (Conv2D)             (None, 48, 80, 8)    576         slice_110[0][0]                  
__________________________________________________________________________________________________
conv2d_126 (Conv2D)             (None, 48, 80, 8)    576         slice_111[0][0]                  
__________________________________________________________________________________________________
conv2d_127 (Conv2D)             (None, 48, 80, 8)    576         slice_112[0][0]                  
__________________________________________________________________________________________________
conv2d_128 (Conv2D)             (None, 48, 80, 8)    576         slice_113[0][0]                  
__________________________________________________________________________________________________
conv2d_129 (Conv2D)             (None, 48, 80, 8)    576         slice_114[0][0]                  
__________________________________________________________________________________________________
conv2d_130 (Conv2D)             (None, 48, 80, 8)    576         slice_115[0][0]                  
__________________________________________________________________________________________________
conv2d_131 (Conv2D)             (None, 48, 80, 8)    576         slice_116[0][0]                  
__________________________________________________________________________________________________
conv2d_132 (Conv2D)             (None, 48, 80, 8)    576         slice_117[0][0]                  
__________________________________________________________________________________________________
conv2d_133 (Conv2D)             (None, 48, 80, 8)    576         slice_118[0][0]                  
__________________________________________________________________________________________________
conv2d_134 (Conv2D)             (None, 48, 80, 8)    576         slice_119[0][0]                  
__________________________________________________________________________________________________
conv2d_135 (Conv2D)             (None, 48, 80, 8)    576         slice_120[0][0]                  
__________________________________________________________________________________________________
conv2d_136 (Conv2D)             (None, 48, 80, 8)    576         slice_121[0][0]                  
__________________________________________________________________________________________________
conv2d_137 (Conv2D)             (None, 48, 80, 8)    576         slice_122[0][0]                  
__________________________________________________________________________________________________
conv2d_138 (Conv2D)             (None, 48, 80, 8)    576         slice_123[0][0]                  
__________________________________________________________________________________________________
conv2d_139 (Conv2D)             (None, 48, 80, 8)    576         slice_124[0][0]                  
__________________________________________________________________________________________________
conv2d_140 (Conv2D)             (None, 48, 80, 8)    576         slice_125[0][0]                  
__________________________________________________________________________________________________
conv2d_141 (Conv2D)             (None, 48, 80, 8)    576         slice_126[0][0]                  
__________________________________________________________________________________________________
conv2d_142 (Conv2D)             (None, 48, 80, 8)    576         slice_127[0][0]                  
__________________________________________________________________________________________________
conv2d_143 (Conv2D)             (None, 48, 80, 8)    576         slice_128[0][0]                  
__________________________________________________________________________________________________
concatenate_4 (Concatenate)     (None, 48, 80, 256)  0           conv2d_112[0][0]                 
                                                                 conv2d_113[0][0]                 
                                                                 conv2d_114[0][0]                 
                                                                 conv2d_115[0][0]                 
                                                                 conv2d_116[0][0]                 
…
                                                                 conv2d_139[0][0]                 
                                                                 conv2d_140[0][0]                 
                                                                 conv2d_141[0][0]                 
                                                                 conv2d_142[0][0]                 
                                                                 conv2d_143[0][0]                 
__________________________________________________________________________________________________
batch_normalization_13 (BatchNo (None, 48, 80, 256)  1024        concatenate_4[0][0]              
__________________________________________________________________________________________________
activation_18 (Activation)      (None, 48, 80, 256)  0           batch_normalization_13[0][0]     
__________________________________________________________________________________________________
conv2d_144 (Conv2D)             (None, 48, 80, 512)  131072      activation_18[0][0]              
__________________________________________________________________________________________________
batch_normalization_14 (BatchNo (None, 48, 80, 512)  2048        conv2d_144[0][0]                 
__________________________________________________________________________________________________
lambda_4 (Lambda)               (None, 1, 1, 512)    0           batch_normalization_14[0][0]     
__________________________________________________________________________________________________
conv2d_146 (Conv2D)             (None, 1, 1, 32)     16416       lambda_4[0][0]                   
__________________________________________________________________________________________________
activation_19 (Activation)      (None, 1, 1, 32)     0           conv2d_146[0][0]                 
__________________________________________________________________________________________________
conv2d_147 (Conv2D)             (None, 1, 1, 512)    16896       activation_19[0][0]              
__________________________________________________________________________________________________
activation_20 (Activation)      (None, 1, 1, 512)    0           conv2d_147[0][0]                 
__________________________________________________________________________________________________
conv2d_145 (Conv2D)             (None, 48, 80, 512)  131072      activation_16[0][0]              
__________________________________________________________________________________________________
multiply_4 (Multiply)           (None, 48, 80, 512)  0           batch_normalization_14[0][0]     
                                                                 activation_20[0][0]              
__________________________________________________________________________________________________
batch_normalization_15 (BatchNo (None, 48, 80, 512)  2048        conv2d_145[0][0]                 
__________________________________________________________________________________________________
add_4 (Add)                     (None, 48, 80, 512)  0           multiply_4[0][0]                 
                                                                 batch_normalization_15[0][0]     
__________________________________________________________________________________________________
activation_21 (Activation)      (None, 48, 80, 512)  0           add_4[0][0]                      
__________________________________________________________________________________________________
conv2d_148 (Conv2D)             (None, 48, 80, 256)  131072      activation_21[0][0]              
__________________________________________________________________________________________________
batch_normalization_16 (BatchNo (None, 48, 80, 256)  1024        conv2d_148[0][0]                 
__________________________________________________________________________________________________
activation_22 (Activation)      (None, 48, 80, 256)  0           batch_normalization_16[0][0]     
__________________________________________________________________________________________________
zero_padding2d_7 (ZeroPadding2D (None, 50, 82, 256)  0           activation_22[0][0]              
__________________________________________________________________________________________________
slice_129 (Slice)               (None, 50, 82, 8)    0           zero_padding2d_7[0][0]           
__________________________________________________________________________________________________
slice_130 (Slice)               (None, 50, 82, 8)    0           zero_padding2d_7[0][0]           
__________________________________________________________________________________________________
slice_131 (Slice)               (None, 50, 82, 8)    0           zero_padding2d_7[0][0]           
__________________________________________________________________________________________________
slice_132 (Slice)               (None, 50, 82, 8)    0           zero_padding2d_7[0][0]           
__________________________________________________________________________________________________
slice_133 (Slice)               (None, 50, 82, 8)    0           zero_padding2d_7[0][0]           
__________________________________________________________________________________________________
slice_134 (Slice)               (None, 50, 82, 8)    0           zero_padding2d_7[0][0]           
__________________________________________________________________________________________________
slice_135 (Slice)               (None, 50, 82, 8)    0           zero_padding2d_7[0][0]           
__________________________________________________________________________________________________
slice_136 (Slice)               (None, 50, 82, 8)    0           zero_padding2d_7[0][0]           
__________________________________________________________________________________________________
slice_137 (Slice)               (None, 50, 82, 8)    0           zero_padding2d_7[0][0]           
__________________________________________________________________________________________________
slice_138 (Slice)               (None, 50, 82, 8)    0           zero_padding2d_7[0][0]           
__________________________________________________________________________________________________
slice_139 (Slice)               (None, 50, 82, 8)    0           zero_padding2d_7[0][0]           
__________________________________________________________________________________________________
slice_140 (Slice)               (None, 50, 82, 8)    0           zero_padding2d_7[0][0]           
__________________________________________________________________________________________________
slice_141 (Slice)               (None, 50, 82, 8)    0           zero_padding2d_7[0][0]           
__________________________________________________________________________________________________
slice_142 (Slice)               (None, 50, 82, 8)    0           zero_padding2d_7[0][0]           
__________________________________________________________________________________________________
slice_143 (Slice)               (None, 50, 82, 8)    0           zero_padding2d_7[0][0]           
__________________________________________________________________________________________________
slice_144 (Slice)               (None, 50, 82, 8)    0           zero_padding2d_7[0][0]           
__________________________________________________________________________________________________
slice_145 (Slice)               (None, 50, 82, 8)    0           zero_padding2d_7[0][0]           
__________________________________________________________________________________________________
slice_146 (Slice)               (None, 50, 82, 8)    0           zero_padding2d_7[0][0]           
__________________________________________________________________________________________________
slice_147 (Slice)               (None, 50, 82, 8)    0           zero_padding2d_7[0][0]           
__________________________________________________________________________________________________
slice_148 (Slice)               (None, 50, 82, 8)    0           zero_padding2d_7[0][0]           
__________________________________________________________________________________________________
slice_149 (Slice)               (None, 50, 82, 8)    0           zero_padding2d_7[0][0]           
__________________________________________________________________________________________________
slice_150 (Slice)               (None, 50, 82, 8)    0           zero_padding2d_7[0][0]           
__________________________________________________________________________________________________
slice_151 (Slice)               (None, 50, 82, 8)    0           zero_padding2d_7[0][0]           
__________________________________________________________________________________________________
slice_152 (Slice)               (None, 50, 82, 8)    0           zero_padding2d_7[0][0]           
__________________________________________________________________________________________________
slice_153 (Slice)               (None, 50, 82, 8)    0           zero_padding2d_7[0][0]           
__________________________________________________________________________________________________
slice_154 (Slice)               (None, 50, 82, 8)    0           zero_padding2d_7[0][0]           
__________________________________________________________________________________________________
slice_155 (Slice)               (None, 50, 82, 8)    0           zero_padding2d_7[0][0]           
__________________________________________________________________________________________________
slice_156 (Slice)               (None, 50, 82, 8)    0           zero_padding2d_7[0][0]           
__________________________________________________________________________________________________
slice_157 (Slice)               (None, 50, 82, 8)    0           zero_padding2d_7[0][0]           
__________________________________________________________________________________________________
slice_158 (Slice)               (None, 50, 82, 8)    0           zero_padding2d_7[0][0]           
__________________________________________________________________________________________________
slice_159 (Slice)               (None, 50, 82, 8)    0           zero_padding2d_7[0][0]           
__________________________________________________________________________________________________
slice_160 (Slice)               (None, 50, 82, 8)    0           zero_padding2d_7[0][0]           
__________________________________________________________________________________________________
conv2d_149 (Conv2D)             (None, 48, 80, 8)    576         slice_129[0][0]                  
__________________________________________________________________________________________________
conv2d_150 (Conv2D)             (None, 48, 80, 8)    576         slice_130[0][0]                  
__________________________________________________________________________________________________
conv2d_151 (Conv2D)             (None, 48, 80, 8)    576         slice_131[0][0]                  
__________________________________________________________________________________________________
conv2d_152 (Conv2D)             (None, 48, 80, 8)    576         slice_132[0][0]                  
__________________________________________________________________________________________________
conv2d_153 (Conv2D)             (None, 48, 80, 8)    576         slice_133[0][0]                  
__________________________________________________________________________________________________
conv2d_154 (Conv2D)             (None, 48, 80, 8)    576         slice_134[0][0]                  
__________________________________________________________________________________________________
conv2d_155 (Conv2D)             (None, 48, 80, 8)    576         slice_135[0][0]                  
__________________________________________________________________________________________________
conv2d_156 (Conv2D)             (None, 48, 80, 8)    576         slice_136[0][0]                  
__________________________________________________________________________________________________
conv2d_157 (Conv2D)             (None, 48, 80, 8)    576         slice_137[0][0]                  
__________________________________________________________________________________________________
conv2d_158 (Conv2D)             (None, 48, 80, 8)    576         slice_138[0][0]                  
__________________________________________________________________________________________________
conv2d_159 (Conv2D)             (None, 48, 80, 8)    576         slice_139[0][0]                  
__________________________________________________________________________________________________
conv2d_160 (Conv2D)             (None, 48, 80, 8)    576         slice_140[0][0]                  
__________________________________________________________________________________________________
conv2d_161 (Conv2D)             (None, 48, 80, 8)    576         slice_141[0][0]                  
__________________________________________________________________________________________________
conv2d_162 (Conv2D)             (None, 48, 80, 8)    576         slice_142[0][0]                  
__________________________________________________________________________________________________
conv2d_163 (Conv2D)             (None, 48, 80, 8)    576         slice_143[0][0]                  
__________________________________________________________________________________________________
conv2d_164 (Conv2D)             (None, 48, 80, 8)    576         slice_144[0][0]                  
__________________________________________________________________________________________________
conv2d_165 (Conv2D)             (None, 48, 80, 8)    576         slice_145[0][0]                  
__________________________________________________________________________________________________
conv2d_166 (Conv2D)             (None, 48, 80, 8)    576         slice_146[0][0]                  
__________________________________________________________________________________________________
conv2d_167 (Conv2D)             (None, 48, 80, 8)    576         slice_147[0][0]                  
__________________________________________________________________________________________________
conv2d_168 (Conv2D)             (None, 48, 80, 8)    576         slice_148[0][0]                  
__________________________________________________________________________________________________
conv2d_169 (Conv2D)             (None, 48, 80, 8)    576         slice_149[0][0]                  
__________________________________________________________________________________________________
conv2d_170 (Conv2D)             (None, 48, 80, 8)    576         slice_150[0][0]                  
__________________________________________________________________________________________________
conv2d_171 (Conv2D)             (None, 48, 80, 8)    576         slice_151[0][0]                  
__________________________________________________________________________________________________
conv2d_172 (Conv2D)             (None, 48, 80, 8)    576         slice_152[0][0]                  
__________________________________________________________________________________________________
conv2d_173 (Conv2D)             (None, 48, 80, 8)    576         slice_153[0][0]                  
__________________________________________________________________________________________________
conv2d_174 (Conv2D)             (None, 48, 80, 8)    576         slice_154[0][0]                  
__________________________________________________________________________________________________
conv2d_175 (Conv2D)             (None, 48, 80, 8)    576         slice_155[0][0]                  
__________________________________________________________________________________________________
conv2d_176 (Conv2D)             (None, 48, 80, 8)    576         slice_156[0][0]                  
__________________________________________________________________________________________________
conv2d_177 (Conv2D)             (None, 48, 80, 8)    576         slice_157[0][0]                  
__________________________________________________________________________________________________
conv2d_178 (Conv2D)             (None, 48, 80, 8)    576         slice_158[0][0]                  
__________________________________________________________________________________________________
conv2d_179 (Conv2D)             (None, 48, 80, 8)    576         slice_159[0][0]                  
__________________________________________________________________________________________________
conv2d_180 (Conv2D)             (None, 48, 80, 8)    576         slice_160[0][0]                  
__________________________________________________________________________________________________
concatenate_5 (Concatenate)     (None, 48, 80, 256)  0           conv2d_149[0][0]                 
                                                                 conv2d_150[0][0]                 
                                                                 conv2d_151[0][0]                 
                                                                 conv2d_152[0][0]                 
                                                                 conv2d_153[0][0]                 
…
                                                                 conv2d_176[0][0]                 
                                                                 conv2d_177[0][0]                 
                                                                 conv2d_178[0][0]                 
                                                                 conv2d_179[0][0]                 
                                                                 conv2d_180[0][0]                 
__________________________________________________________________________________________________
batch_normalization_17 (BatchNo (None, 48, 80, 256)  1024        concatenate_5[0][0]              
__________________________________________________________________________________________________
activation_23 (Activation)      (None, 48, 80, 256)  0           batch_normalization_17[0][0]     
__________________________________________________________________________________________________
conv2d_181 (Conv2D)             (None, 48, 80, 512)  131072      activation_23[0][0]              
__________________________________________________________________________________________________
batch_normalization_18 (BatchNo (None, 48, 80, 512)  2048        conv2d_181[0][0]                 
__________________________________________________________________________________________________
lambda_5 (Lambda)               (None, 1, 1, 512)    0           batch_normalization_18[0][0]     
__________________________________________________________________________________________________
conv2d_182 (Conv2D)             (None, 1, 1, 32)     16416       lambda_5[0][0]                   
__________________________________________________________________________________________________
activation_24 (Activation)      (None, 1, 1, 32)     0           conv2d_182[0][0]                 
__________________________________________________________________________________________________
conv2d_183 (Conv2D)             (None, 1, 1, 512)    16896       activation_24[0][0]              
__________________________________________________________________________________________________
activation_25 (Activation)      (None, 1, 1, 512)    0           conv2d_183[0][0]                 
__________________________________________________________________________________________________
multiply_5 (Multiply)           (None, 48, 80, 512)  0           batch_normalization_18[0][0]     
                                                                 activation_25[0][0]              
__________________________________________________________________________________________________
add_5 (Add)                     (None, 48, 80, 512)  0           multiply_5[0][0]                 
                                                                 activation_21[0][0]              
__________________________________________________________________________________________________
activation_26 (Activation)      (None, 48, 80, 512)  0           add_5[0][0]                      
__________________________________________________________________________________________________
conv2d_184 (Conv2D)             (None, 48, 80, 256)  131072      activation_26[0][0]              
__________________________________________________________________________________________________
batch_normalization_19 (BatchNo (None, 48, 80, 256)  1024        conv2d_184[0][0]                 
__________________________________________________________________________________________________
activation_27 (Activation)      (None, 48, 80, 256)  0           batch_normalization_19[0][0]     
__________________________________________________________________________________________________
zero_padding2d_8 (ZeroPadding2D (None, 50, 82, 256)  0           activation_27[0][0]              
__________________________________________________________________________________________________
slice_161 (Slice)               (None, 50, 82, 8)    0           zero_padding2d_8[0][0]           
__________________________________________________________________________________________________
slice_162 (Slice)               (None, 50, 82, 8)    0           zero_padding2d_8[0][0]           
__________________________________________________________________________________________________
slice_163 (Slice)               (None, 50, 82, 8)    0           zero_padding2d_8[0][0]           
__________________________________________________________________________________________________
slice_164 (Slice)               (None, 50, 82, 8)    0           zero_padding2d_8[0][0]           
__________________________________________________________________________________________________
slice_165 (Slice)               (None, 50, 82, 8)    0           zero_padding2d_8[0][0]           
__________________________________________________________________________________________________
slice_166 (Slice)               (None, 50, 82, 8)    0           zero_padding2d_8[0][0]           
__________________________________________________________________________________________________
slice_167 (Slice)               (None, 50, 82, 8)    0           zero_padding2d_8[0][0]           
__________________________________________________________________________________________________
slice_168 (Slice)               (None, 50, 82, 8)    0           zero_padding2d_8[0][0]           
__________________________________________________________________________________________________
slice_169 (Slice)               (None, 50, 82, 8)    0           zero_padding2d_8[0][0]           
__________________________________________________________________________________________________
slice_170 (Slice)               (None, 50, 82, 8)    0           zero_padding2d_8[0][0]           
__________________________________________________________________________________________________
slice_171 (Slice)               (None, 50, 82, 8)    0           zero_padding2d_8[0][0]           
__________________________________________________________________________________________________
slice_172 (Slice)               (None, 50, 82, 8)    0           zero_padding2d_8[0][0]           
__________________________________________________________________________________________________
slice_173 (Slice)               (None, 50, 82, 8)    0           zero_padding2d_8[0][0]           
__________________________________________________________________________________________________
slice_174 (Slice)               (None, 50, 82, 8)    0           zero_padding2d_8[0][0]           
__________________________________________________________________________________________________
slice_175 (Slice)               (None, 50, 82, 8)    0           zero_padding2d_8[0][0]           
__________________________________________________________________________________________________
slice_176 (Slice)               (None, 50, 82, 8)    0           zero_padding2d_8[0][0]           
__________________________________________________________________________________________________
slice_177 (Slice)               (None, 50, 82, 8)    0           zero_padding2d_8[0][0]           
__________________________________________________________________________________________________
slice_178 (Slice)               (None, 50, 82, 8)    0           zero_padding2d_8[0][0]           
__________________________________________________________________________________________________
slice_179 (Slice)               (None, 50, 82, 8)    0           zero_padding2d_8[0][0]           
__________________________________________________________________________________________________
slice_180 (Slice)               (None, 50, 82, 8)    0           zero_padding2d_8[0][0]           
__________________________________________________________________________________________________
slice_181 (Slice)               (None, 50, 82, 8)    0           zero_padding2d_8[0][0]           
__________________________________________________________________________________________________
slice_182 (Slice)               (None, 50, 82, 8)    0           zero_padding2d_8[0][0]           
__________________________________________________________________________________________________
slice_183 (Slice)               (None, 50, 82, 8)    0           zero_padding2d_8[0][0]           
__________________________________________________________________________________________________
slice_184 (Slice)               (None, 50, 82, 8)    0           zero_padding2d_8[0][0]           
__________________________________________________________________________________________________
slice_185 (Slice)               (None, 50, 82, 8)    0           zero_padding2d_8[0][0]           
__________________________________________________________________________________________________
slice_186 (Slice)               (None, 50, 82, 8)    0           zero_padding2d_8[0][0]           
__________________________________________________________________________________________________
slice_187 (Slice)               (None, 50, 82, 8)    0           zero_padding2d_8[0][0]           
__________________________________________________________________________________________________
slice_188 (Slice)               (None, 50, 82, 8)    0           zero_padding2d_8[0][0]           
__________________________________________________________________________________________________
slice_189 (Slice)               (None, 50, 82, 8)    0           zero_padding2d_8[0][0]           
__________________________________________________________________________________________________
slice_190 (Slice)               (None, 50, 82, 8)    0           zero_padding2d_8[0][0]           
__________________________________________________________________________________________________
slice_191 (Slice)               (None, 50, 82, 8)    0           zero_padding2d_8[0][0]           
__________________________________________________________________________________________________
slice_192 (Slice)               (None, 50, 82, 8)    0           zero_padding2d_8[0][0]           
__________________________________________________________________________________________________
conv2d_185 (Conv2D)             (None, 48, 80, 8)    576         slice_161[0][0]                  
__________________________________________________________________________________________________
conv2d_186 (Conv2D)             (None, 48, 80, 8)    576         slice_162[0][0]                  
__________________________________________________________________________________________________
conv2d_187 (Conv2D)             (None, 48, 80, 8)    576         slice_163[0][0]                  
__________________________________________________________________________________________________
conv2d_188 (Conv2D)             (None, 48, 80, 8)    576         slice_164[0][0]                  
__________________________________________________________________________________________________
conv2d_189 (Conv2D)             (None, 48, 80, 8)    576         slice_165[0][0]                  
__________________________________________________________________________________________________
conv2d_190 (Conv2D)             (None, 48, 80, 8)    576         slice_166[0][0]                  
__________________________________________________________________________________________________
conv2d_191 (Conv2D)             (None, 48, 80, 8)    576         slice_167[0][0]                  
__________________________________________________________________________________________________
conv2d_192 (Conv2D)             (None, 48, 80, 8)    576         slice_168[0][0]                  
__________________________________________________________________________________________________
conv2d_193 (Conv2D)             (None, 48, 80, 8)    576         slice_169[0][0]                  
__________________________________________________________________________________________________
conv2d_194 (Conv2D)             (None, 48, 80, 8)    576         slice_170[0][0]                  
__________________________________________________________________________________________________
conv2d_195 (Conv2D)             (None, 48, 80, 8)    576         slice_171[0][0]                  
__________________________________________________________________________________________________
conv2d_196 (Conv2D)             (None, 48, 80, 8)    576         slice_172[0][0]                  
__________________________________________________________________________________________________
conv2d_197 (Conv2D)             (None, 48, 80, 8)    576         slice_173[0][0]                  
__________________________________________________________________________________________________
conv2d_198 (Conv2D)             (None, 48, 80, 8)    576         slice_174[0][0]                  
__________________________________________________________________________________________________
conv2d_199 (Conv2D)             (None, 48, 80, 8)    576         slice_175[0][0]                  
__________________________________________________________________________________________________
conv2d_200 (Conv2D)             (None, 48, 80, 8)    576         slice_176[0][0]                  
__________________________________________________________________________________________________
conv2d_201 (Conv2D)             (None, 48, 80, 8)    576         slice_177[0][0]                  
__________________________________________________________________________________________________
conv2d_202 (Conv2D)             (None, 48, 80, 8)    576         slice_178[0][0]                  
__________________________________________________________________________________________________
conv2d_203 (Conv2D)             (None, 48, 80, 8)    576         slice_179[0][0]                  
__________________________________________________________________________________________________
conv2d_204 (Conv2D)             (None, 48, 80, 8)    576         slice_180[0][0]                  
__________________________________________________________________________________________________
conv2d_205 (Conv2D)             (None, 48, 80, 8)    576         slice_181[0][0]                  
__________________________________________________________________________________________________
conv2d_206 (Conv2D)             (None, 48, 80, 8)    576         slice_182[0][0]                  
__________________________________________________________________________________________________
conv2d_207 (Conv2D)             (None, 48, 80, 8)    576         slice_183[0][0]                  
__________________________________________________________________________________________________
conv2d_208 (Conv2D)             (None, 48, 80, 8)    576         slice_184[0][0]                  
__________________________________________________________________________________________________
conv2d_209 (Conv2D)             (None, 48, 80, 8)    576         slice_185[0][0]                  
__________________________________________________________________________________________________
conv2d_210 (Conv2D)             (None, 48, 80, 8)    576         slice_186[0][0]                  
__________________________________________________________________________________________________
conv2d_211 (Conv2D)             (None, 48, 80, 8)    576         slice_187[0][0]                  
__________________________________________________________________________________________________
conv2d_212 (Conv2D)             (None, 48, 80, 8)    576         slice_188[0][0]                  
__________________________________________________________________________________________________
conv2d_213 (Conv2D)             (None, 48, 80, 8)    576         slice_189[0][0]                  
__________________________________________________________________________________________________
conv2d_214 (Conv2D)             (None, 48, 80, 8)    576         slice_190[0][0]                  
__________________________________________________________________________________________________
conv2d_215 (Conv2D)             (None, 48, 80, 8)    576         slice_191[0][0]                  
__________________________________________________________________________________________________
conv2d_216 (Conv2D)             (None, 48, 80, 8)    576         slice_192[0][0]                  
__________________________________________________________________________________________________
concatenate_6 (Concatenate)     (None, 48, 80, 256)  0           conv2d_185[0][0]                 
                                                                 conv2d_186[0][0]                 
                                                                 conv2d_187[0][0]                 
                                                                 conv2d_188[0][0]                 
                                                                 conv2d_189[0][0]                 
…
                                                                 conv2d_248[0][0]                 
                                                                 conv2d_249[0][0]                 
                                                                 conv2d_250[0][0]                 
                                                                 conv2d_251[0][0]                 
                                                                 conv2d_252[0][0]                 
__________________________________________________________________________________________________
batch_normalization_23 (BatchNo (None, 48, 80, 256)  1024        concatenate_7[0][0]              
__________________________________________________________________________________________________
activation_33 (Activation)      (None, 48, 80, 256)  0           batch_normalization_23[0][0]     
__________________________________________________________________________________________________
conv2d_253 (Conv2D)             (None, 48, 80, 512)  131072      activation_33[0][0]              
__________________________________________________________________________________________________
batch_normalization_24 (BatchNo (None, 48, 80, 512)  2048        conv2d_253[0][0]                 
__________________________________________________________________________________________________
lambda_7 (Lambda)               (None, 1, 1, 512)    0           batch_normalization_24[0][0]     
__________________________________________________________________________________________________
conv2d_254 (Conv2D)             (None, 1, 1, 32)     16416       lambda_7[0][0]                   
__________________________________________________________________________________________________
activation_34 (Activation)      (None, 1, 1, 32)     0           conv2d_254[0][0]                 
__________________________________________________________________________________________________
conv2d_255 (Conv2D)             (None, 1, 1, 512)    16896       activation_34[0][0]              
__________________________________________________________________________________________________
activation_35 (Activation)      (None, 1, 1, 512)    0           conv2d_255[0][0]                 
__________________________________________________________________________________________________
multiply_7 (Multiply)           (None, 48, 80, 512)  0           batch_normalization_24[0][0]     
                                                                 activation_35[0][0]              
__________________________________________________________________________________________________
add_7 (Add)                     (None, 48, 80, 512)  0           multiply_7[0][0]                 
                                                                 activation_31[0][0]              
__________________________________________________________________________________________________
activation_36 (Activation)      (None, 48, 80, 512)  0           add_7[0][0]                      
__________________________________________________________________________________________________
conv2d_256 (Conv2D)             (None, 48, 80, 512)  262144      activation_36[0][0]              
__________________________________________________________________________________________________
batch_normalization_25 (BatchNo (None, 48, 80, 512)  2048        conv2d_256[0][0]                 
__________________________________________________________________________________________________
activation_37 (Activation)      (None, 48, 80, 512)  0           batch_normalization_25[0][0]     
__________________________________________________________________________________________________
zero_padding2d_10 (ZeroPadding2 (None, 50, 82, 512)  0           activation_37[0][0]              
__________________________________________________________________________________________________
slice_225 (Slice)               (None, 50, 82, 16)   0           zero_padding2d_10[0][0]          
__________________________________________________________________________________________________
slice_226 (Slice)               (None, 50, 82, 16)   0           zero_padding2d_10[0][0]          
__________________________________________________________________________________________________
slice_227 (Slice)               (None, 50, 82, 16)   0           zero_padding2d_10[0][0]          
__________________________________________________________________________________________________
slice_228 (Slice)               (None, 50, 82, 16)   0           zero_padding2d_10[0][0]          
__________________________________________________________________________________________________
slice_229 (Slice)               (None, 50, 82, 16)   0           zero_padding2d_10[0][0]          
__________________________________________________________________________________________________
slice_230 (Slice)               (None, 50, 82, 16)   0           zero_padding2d_10[0][0]          
__________________________________________________________________________________________________
slice_231 (Slice)               (None, 50, 82, 16)   0           zero_padding2d_10[0][0]          
__________________________________________________________________________________________________
slice_232 (Slice)               (None, 50, 82, 16)   0           zero_padding2d_10[0][0]          
__________________________________________________________________________________________________
slice_233 (Slice)               (None, 50, 82, 16)   0           zero_padding2d_10[0][0]          
__________________________________________________________________________________________________
slice_234 (Slice)               (None, 50, 82, 16)   0           zero_padding2d_10[0][0]          
__________________________________________________________________________________________________
slice_235 (Slice)               (None, 50, 82, 16)   0           zero_padding2d_10[0][0]          
__________________________________________________________________________________________________
slice_236 (Slice)               (None, 50, 82, 16)   0           zero_padding2d_10[0][0]          
__________________________________________________________________________________________________
slice_237 (Slice)               (None, 50, 82, 16)   0           zero_padding2d_10[0][0]          
__________________________________________________________________________________________________
slice_238 (Slice)               (None, 50, 82, 16)   0           zero_padding2d_10[0][0]          
__________________________________________________________________________________________________
slice_239 (Slice)               (None, 50, 82, 16)   0           zero_padding2d_10[0][0]          
__________________________________________________________________________________________________
slice_240 (Slice)               (None, 50, 82, 16)   0           zero_padding2d_10[0][0]          
__________________________________________________________________________________________________
slice_241 (Slice)               (None, 50, 82, 16)   0           zero_padding2d_10[0][0]          
__________________________________________________________________________________________________
slice_242 (Slice)               (None, 50, 82, 16)   0           zero_padding2d_10[0][0]          
__________________________________________________________________________________________________
slice_243 (Slice)               (None, 50, 82, 16)   0           zero_padding2d_10[0][0]          
__________________________________________________________________________________________________
slice_244 (Slice)               (None, 50, 82, 16)   0           zero_padding2d_10[0][0]          
__________________________________________________________________________________________________
slice_245 (Slice)               (None, 50, 82, 16)   0           zero_padding2d_10[0][0]          
__________________________________________________________________________________________________
slice_246 (Slice)               (None, 50, 82, 16)   0           zero_padding2d_10[0][0]          
__________________________________________________________________________________________________
slice_247 (Slice)               (None, 50, 82, 16)   0           zero_padding2d_10[0][0]          
__________________________________________________________________________________________________
slice_248 (Slice)               (None, 50, 82, 16)   0           zero_padding2d_10[0][0]          
__________________________________________________________________________________________________
slice_249 (Slice)               (None, 50, 82, 16)   0           zero_padding2d_10[0][0]          
__________________________________________________________________________________________________
slice_250 (Slice)               (None, 50, 82, 16)   0           zero_padding2d_10[0][0]          
__________________________________________________________________________________________________
slice_251 (Slice)               (None, 50, 82, 16)   0           zero_padding2d_10[0][0]          
__________________________________________________________________________________________________
slice_252 (Slice)               (None, 50, 82, 16)   0           zero_padding2d_10[0][0]          
__________________________________________________________________________________________________
slice_253 (Slice)               (None, 50, 82, 16)   0           zero_padding2d_10[0][0]          
__________________________________________________________________________________________________
slice_254 (Slice)               (None, 50, 82, 16)   0           zero_padding2d_10[0][0]          
__________________________________________________________________________________________________
slice_255 (Slice)               (None, 50, 82, 16)   0           zero_padding2d_10[0][0]          
__________________________________________________________________________________________________
slice_256 (Slice)               (None, 50, 82, 16)   0           zero_padding2d_10[0][0]          
__________________________________________________________________________________________________
conv2d_257 (Conv2D)             (None, 24, 40, 16)   2304        slice_225[0][0]                  
__________________________________________________________________________________________________
conv2d_258 (Conv2D)             (None, 24, 40, 16)   2304        slice_226[0][0]                  
__________________________________________________________________________________________________
conv2d_259 (Conv2D)             (None, 24, 40, 16)   2304        slice_227[0][0]                  
__________________________________________________________________________________________________
conv2d_260 (Conv2D)             (None, 24, 40, 16)   2304        slice_228[0][0]                  
__________________________________________________________________________________________________
conv2d_261 (Conv2D)             (None, 24, 40, 16)   2304        slice_229[0][0]                  
__________________________________________________________________________________________________
conv2d_262 (Conv2D)             (None, 24, 40, 16)   2304        slice_230[0][0]                  
__________________________________________________________________________________________________
conv2d_263 (Conv2D)             (None, 24, 40, 16)   2304        slice_231[0][0]                  
__________________________________________________________________________________________________
conv2d_264 (Conv2D)             (None, 24, 40, 16)   2304        slice_232[0][0]                  
__________________________________________________________________________________________________
conv2d_265 (Conv2D)             (None, 24, 40, 16)   2304        slice_233[0][0]                  
__________________________________________________________________________________________________
conv2d_266 (Conv2D)             (None, 24, 40, 16)   2304        slice_234[0][0]                  
__________________________________________________________________________________________________
conv2d_267 (Conv2D)             (None, 24, 40, 16)   2304        slice_235[0][0]                  
__________________________________________________________________________________________________
conv2d_268 (Conv2D)             (None, 24, 40, 16)   2304        slice_236[0][0]                  
__________________________________________________________________________________________________
conv2d_269 (Conv2D)             (None, 24, 40, 16)   2304        slice_237[0][0]                  
__________________________________________________________________________________________________
conv2d_270 (Conv2D)             (None, 24, 40, 16)   2304        slice_238[0][0]                  
__________________________________________________________________________________________________
conv2d_271 (Conv2D)             (None, 24, 40, 16)   2304        slice_239[0][0]                  
__________________________________________________________________________________________________
conv2d_272 (Conv2D)             (None, 24, 40, 16)   2304        slice_240[0][0]                  
__________________________________________________________________________________________________
conv2d_273 (Conv2D)             (None, 24, 40, 16)   2304        slice_241[0][0]                  
__________________________________________________________________________________________________
conv2d_274 (Conv2D)             (None, 24, 40, 16)   2304        slice_242[0][0]                  
__________________________________________________________________________________________________
conv2d_275 (Conv2D)             (None, 24, 40, 16)   2304        slice_243[0][0]                  
__________________________________________________________________________________________________
conv2d_276 (Conv2D)             (None, 24, 40, 16)   2304        slice_244[0][0]                  
__________________________________________________________________________________________________
conv2d_277 (Conv2D)             (None, 24, 40, 16)   2304        slice_245[0][0]                  
__________________________________________________________________________________________________
conv2d_278 (Conv2D)             (None, 24, 40, 16)   2304        slice_246[0][0]                  
__________________________________________________________________________________________________
conv2d_279 (Conv2D)             (None, 24, 40, 16)   2304        slice_247[0][0]                  
__________________________________________________________________________________________________
conv2d_280 (Conv2D)             (None, 24, 40, 16)   2304        slice_248[0][0]                  
__________________________________________________________________________________________________
conv2d_281 (Conv2D)             (None, 24, 40, 16)   2304        slice_249[0][0]                  
__________________________________________________________________________________________________
conv2d_282 (Conv2D)             (None, 24, 40, 16)   2304        slice_250[0][0]                  
__________________________________________________________________________________________________
conv2d_283 (Conv2D)             (None, 24, 40, 16)   2304        slice_251[0][0]                  
__________________________________________________________________________________________________
conv2d_284 (Conv2D)             (None, 24, 40, 16)   2304        slice_252[0][0]                  
__________________________________________________________________________________________________
conv2d_285 (Conv2D)             (None, 24, 40, 16)   2304        slice_253[0][0]                  
__________________________________________________________________________________________________
conv2d_286 (Conv2D)             (None, 24, 40, 16)   2304        slice_254[0][0]                  
__________________________________________________________________________________________________
conv2d_287 (Conv2D)             (None, 24, 40, 16)   2304        slice_255[0][0]                  
__________________________________________________________________________________________________
conv2d_288 (Conv2D)             (None, 24, 40, 16)   2304        slice_256[0][0]                  
__________________________________________________________________________________________________
concatenate_8 (Concatenate)     (None, 24, 40, 512)  0           conv2d_257[0][0]                 
                                                                 conv2d_258[0][0]                 
                                                                 conv2d_259[0][0]                 
                                                                 conv2d_260[0][0]                 
                                                                 conv2d_261[0][0]                 
…
                                                                 conv2d_284[0][0]                 
                                                                 conv2d_285[0][0]                 
                                                                 conv2d_286[0][0]                 
                                                                 conv2d_287[0][0]                 
                                                                 conv2d_288[0][0]                 
__________________________________________________________________________________________________
batch_normalization_26 (BatchNo (None, 24, 40, 512)  2048        concatenate_8[0][0]              
__________________________________________________________________________________________________
activation_38 (Activation)      (None, 24, 40, 512)  0           batch_normalization_26[0][0]     
__________________________________________________________________________________________________
conv2d_289 (Conv2D)             (None, 24, 40, 1024) 524288      activation_38[0][0]              
__________________________________________________________________________________________________
batch_normalization_27 (BatchNo (None, 24, 40, 1024) 4096        conv2d_289[0][0]                 
__________________________________________________________________________________________________
lambda_8 (Lambda)               (None, 1, 1, 1024)   0           batch_normalization_27[0][0]     
__________________________________________________________________________________________________
conv2d_291 (Conv2D)             (None, 1, 1, 64)     65600       lambda_8[0][0]                   
__________________________________________________________________________________________________
activation_39 (Activation)      (None, 1, 1, 64)     0           conv2d_291[0][0]                 
__________________________________________________________________________________________________
conv2d_292 (Conv2D)             (None, 1, 1, 1024)   66560       activation_39[0][0]              
__________________________________________________________________________________________________
activation_40 (Activation)      (None, 1, 1, 1024)   0           conv2d_292[0][0]                 
__________________________________________________________________________________________________
conv2d_290 (Conv2D)             (None, 24, 40, 1024) 524288      activation_36[0][0]              
__________________________________________________________________________________________________
multiply_8 (Multiply)           (None, 24, 40, 1024) 0           batch_normalization_27[0][0]     
                                                                 activation_40[0][0]              
__________________________________________________________________________________________________
batch_normalization_28 (BatchNo (None, 24, 40, 1024) 4096        conv2d_290[0][0]                 
__________________________________________________________________________________________________
add_8 (Add)                     (None, 24, 40, 1024) 0           multiply_8[0][0]                 
                                                                 batch_normalization_28[0][0]     
__________________________________________________________________________________________________
activation_41 (Activation)      (None, 24, 40, 1024) 0           add_8[0][0]                      
__________________________________________________________________________________________________
conv2d_293 (Conv2D)             (None, 24, 40, 512)  524288      activation_41[0][0]              
__________________________________________________________________________________________________
batch_normalization_29 (BatchNo (None, 24, 40, 512)  2048        conv2d_293[0][0]                 
__________________________________________________________________________________________________
activation_42 (Activation)      (None, 24, 40, 512)  0           batch_normalization_29[0][0]     
__________________________________________________________________________________________________
zero_padding2d_11 (ZeroPadding2 (None, 26, 42, 512)  0           activation_42[0][0]              
__________________________________________________________________________________________________
slice_257 (Slice)               (None, 26, 42, 16)   0           zero_padding2d_11[0][0]          
__________________________________________________________________________________________________
slice_258 (Slice)               (None, 26, 42, 16)   0           zero_padding2d_11[0][0]          
__________________________________________________________________________________________________
slice_259 (Slice)               (None, 26, 42, 16)   0           zero_padding2d_11[0][0]          
__________________________________________________________________________________________________
slice_260 (Slice)               (None, 26, 42, 16)   0           zero_padding2d_11[0][0]          
__________________________________________________________________________________________________
slice_261 (Slice)               (None, 26, 42, 16)   0           zero_padding2d_11[0][0]          
__________________________________________________________________________________________________
slice_262 (Slice)               (None, 26, 42, 16)   0           zero_padding2d_11[0][0]          
__________________________________________________________________________________________________
slice_263 (Slice)               (None, 26, 42, 16)   0           zero_padding2d_11[0][0]          
__________________________________________________________________________________________________
slice_264 (Slice)               (None, 26, 42, 16)   0           zero_padding2d_11[0][0]          
__________________________________________________________________________________________________
slice_265 (Slice)               (None, 26, 42, 16)   0           zero_padding2d_11[0][0]          
__________________________________________________________________________________________________
slice_266 (Slice)               (None, 26, 42, 16)   0           zero_padding2d_11[0][0]          
__________________________________________________________________________________________________
slice_267 (Slice)               (None, 26, 42, 16)   0           zero_padding2d_11[0][0]          
__________________________________________________________________________________________________
slice_268 (Slice)               (None, 26, 42, 16)   0           zero_padding2d_11[0][0]          
__________________________________________________________________________________________________
slice_269 (Slice)               (None, 26, 42, 16)   0           zero_padding2d_11[0][0]          
__________________________________________________________________________________________________
slice_270 (Slice)               (None, 26, 42, 16)   0           zero_padding2d_11[0][0]          
__________________________________________________________________________________________________
slice_271 (Slice)               (None, 26, 42, 16)   0           zero_padding2d_11[0][0]          
__________________________________________________________________________________________________
slice_272 (Slice)               (None, 26, 42, 16)   0           zero_padding2d_11[0][0]          
__________________________________________________________________________________________________
slice_273 (Slice)               (None, 26, 42, 16)   0           zero_padding2d_11[0][0]          
__________________________________________________________________________________________________
slice_274 (Slice)               (None, 26, 42, 16)   0           zero_padding2d_11[0][0]          
__________________________________________________________________________________________________
slice_275 (Slice)               (None, 26, 42, 16)   0           zero_padding2d_11[0][0]          
__________________________________________________________________________________________________
slice_276 (Slice)               (None, 26, 42, 16)   0           zero_padding2d_11[0][0]          
__________________________________________________________________________________________________
slice_277 (Slice)               (None, 26, 42, 16)   0           zero_padding2d_11[0][0]          
__________________________________________________________________________________________________
slice_278 (Slice)               (None, 26, 42, 16)   0           zero_padding2d_11[0][0]          
__________________________________________________________________________________________________
slice_279 (Slice)               (None, 26, 42, 16)   0           zero_padding2d_11[0][0]          
__________________________________________________________________________________________________
slice_280 (Slice)               (None, 26, 42, 16)   0           zero_padding2d_11[0][0]          
__________________________________________________________________________________________________
slice_281 (Slice)               (None, 26, 42, 16)   0           zero_padding2d_11[0][0]          
__________________________________________________________________________________________________
slice_282 (Slice)               (None, 26, 42, 16)   0           zero_padding2d_11[0][0]          
__________________________________________________________________________________________________
slice_283 (Slice)               (None, 26, 42, 16)   0           zero_padding2d_11[0][0]          
__________________________________________________________________________________________________
slice_284 (Slice)               (None, 26, 42, 16)   0           zero_padding2d_11[0][0]          
__________________________________________________________________________________________________
slice_285 (Slice)               (None, 26, 42, 16)   0           zero_padding2d_11[0][0]          
__________________________________________________________________________________________________
slice_286 (Slice)               (None, 26, 42, 16)   0           zero_padding2d_11[0][0]          
__________________________________________________________________________________________________
slice_287 (Slice)               (None, 26, 42, 16)   0           zero_padding2d_11[0][0]          
__________________________________________________________________________________________________
slice_288 (Slice)               (None, 26, 42, 16)   0           zero_padding2d_11[0][0]          
__________________________________________________________________________________________________
conv2d_294 (Conv2D)             (None, 24, 40, 16)   2304        slice_257[0][0]                  
__________________________________________________________________________________________________
conv2d_295 (Conv2D)             (None, 24, 40, 16)   2304        slice_258[0][0]                  
__________________________________________________________________________________________________
conv2d_296 (Conv2D)             (None, 24, 40, 16)   2304        slice_259[0][0]                  
__________________________________________________________________________________________________
conv2d_297 (Conv2D)             (None, 24, 40, 16)   2304        slice_260[0][0]                  
__________________________________________________________________________________________________
conv2d_298 (Conv2D)             (None, 24, 40, 16)   2304        slice_261[0][0]                  
__________________________________________________________________________________________________
conv2d_299 (Conv2D)             (None, 24, 40, 16)   2304        slice_262[0][0]                  
__________________________________________________________________________________________________
conv2d_300 (Conv2D)             (None, 24, 40, 16)   2304        slice_263[0][0]                  
__________________________________________________________________________________________________
conv2d_301 (Conv2D)             (None, 24, 40, 16)   2304        slice_264[0][0]                  
__________________________________________________________________________________________________
conv2d_302 (Conv2D)             (None, 24, 40, 16)   2304        slice_265[0][0]                  
__________________________________________________________________________________________________
conv2d_303 (Conv2D)             (None, 24, 40, 16)   2304        slice_266[0][0]                  
__________________________________________________________________________________________________
conv2d_304 (Conv2D)             (None, 24, 40, 16)   2304        slice_267[0][0]                  
__________________________________________________________________________________________________
conv2d_305 (Conv2D)             (None, 24, 40, 16)   2304        slice_268[0][0]                  
__________________________________________________________________________________________________
conv2d_306 (Conv2D)             (None, 24, 40, 16)   2304        slice_269[0][0]                  
__________________________________________________________________________________________________
conv2d_307 (Conv2D)             (None, 24, 40, 16)   2304        slice_270[0][0]                  
__________________________________________________________________________________________________
conv2d_308 (Conv2D)             (None, 24, 40, 16)   2304        slice_271[0][0]                  
__________________________________________________________________________________________________
conv2d_309 (Conv2D)             (None, 24, 40, 16)   2304        slice_272[0][0]                  
__________________________________________________________________________________________________
conv2d_310 (Conv2D)             (None, 24, 40, 16)   2304        slice_273[0][0]                  
__________________________________________________________________________________________________
conv2d_311 (Conv2D)             (None, 24, 40, 16)   2304        slice_274[0][0]                  
__________________________________________________________________________________________________
conv2d_312 (Conv2D)             (None, 24, 40, 16)   2304        slice_275[0][0]                  
__________________________________________________________________________________________________
conv2d_313 (Conv2D)             (None, 24, 40, 16)   2304        slice_276[0][0]                  
__________________________________________________________________________________________________
conv2d_314 (Conv2D)             (None, 24, 40, 16)   2304        slice_277[0][0]                  
__________________________________________________________________________________________________
conv2d_315 (Conv2D)             (None, 24, 40, 16)   2304        slice_278[0][0]                  
__________________________________________________________________________________________________
conv2d_316 (Conv2D)             (None, 24, 40, 16)   2304        slice_279[0][0]                  
__________________________________________________________________________________________________
conv2d_317 (Conv2D)             (None, 24, 40, 16)   2304        slice_280[0][0]                  
__________________________________________________________________________________________________
conv2d_318 (Conv2D)             (None, 24, 40, 16)   2304        slice_281[0][0]                  
__________________________________________________________________________________________________
conv2d_319 (Conv2D)             (None, 24, 40, 16)   2304        slice_282[0][0]                  
__________________________________________________________________________________________________
conv2d_320 (Conv2D)             (None, 24, 40, 16)   2304        slice_283[0][0]                  
__________________________________________________________________________________________________
conv2d_321 (Conv2D)             (None, 24, 40, 16)   2304        slice_284[0][0]                  
__________________________________________________________________________________________________
conv2d_322 (Conv2D)             (None, 24, 40, 16)   2304        slice_285[0][0]                  
__________________________________________________________________________________________________
conv2d_323 (Conv2D)             (None, 24, 40, 16)   2304        slice_286[0][0]                  
__________________________________________________________________________________________________
conv2d_324 (Conv2D)             (None, 24, 40, 16)   2304        slice_287[0][0]                  
__________________________________________________________________________________________________
conv2d_325 (Conv2D)             (None, 24, 40, 16)   2304        slice_288[0][0]                  
__________________________________________________________________________________________________
concatenate_9 (Concatenate)     (None, 24, 40, 512)  0           conv2d_294[0][0]                 
                                                                 conv2d_295[0][0]                 
                                                                 conv2d_296[0][0]                 
                                                                 conv2d_297[0][0]                 
                                                                 conv2d_298[0][0]                 
…
                                                                 conv2d_321[0][0]                 
                                                                 conv2d_322[0][0]                 
                                                                 conv2d_323[0][0]                 
                                                                 conv2d_324[0][0]                 
                                                                 conv2d_325[0][0]                 
__________________________________________________________________________________________________
batch_normalization_30 (BatchNo (None, 24, 40, 512)  2048        concatenate_9[0][0]              
__________________________________________________________________________________________________
activation_43 (Activation)      (None, 24, 40, 512)  0           batch_normalization_30[0][0]     
__________________________________________________________________________________________________
conv2d_326 (Conv2D)             (None, 24, 40, 1024) 524288      activation_43[0][0]              
__________________________________________________________________________________________________
batch_normalization_31 (BatchNo (None, 24, 40, 1024) 4096        conv2d_326[0][0]                 
__________________________________________________________________________________________________
lambda_9 (Lambda)               (None, 1, 1, 1024)   0           batch_normalization_31[0][0]     
__________________________________________________________________________________________________
conv2d_327 (Conv2D)             (None, 1, 1, 64)     65600       lambda_9[0][0]                   
__________________________________________________________________________________________________
activation_44 (Activation)      (None, 1, 1, 64)     0           conv2d_327[0][0]                 
__________________________________________________________________________________________________
conv2d_328 (Conv2D)             (None, 1, 1, 1024)   66560       activation_44[0][0]              
__________________________________________________________________________________________________
activation_45 (Activation)      (None, 1, 1, 1024)   0           conv2d_328[0][0]                 
__________________________________________________________________________________________________
multiply_9 (Multiply)           (None, 24, 40, 1024) 0           batch_normalization_31[0][0]     
                                                                 activation_45[0][0]              
__________________________________________________________________________________________________
add_9 (Add)                     (None, 24, 40, 1024) 0           multiply_9[0][0]                 
                                                                 activation_41[0][0]              
__________________________________________________________________________________________________
activation_46 (Activation)      (None, 24, 40, 1024) 0           add_9[0][0]                      
__________________________________________________________________________________________________
conv2d_329 (Conv2D)             (None, 24, 40, 512)  524288      activation_46[0][0]              
__________________________________________________________________________________________________
batch_normalization_32 (BatchNo (None, 24, 40, 512)  2048        conv2d_329[0][0]                 
__________________________________________________________________________________________________
activation_47 (Activation)      (None, 24, 40, 512)  0           batch_normalization_32[0][0]     
__________________________________________________________________________________________________
zero_padding2d_12 (ZeroPadding2 (None, 26, 42, 512)  0           activation_47[0][0]              
__________________________________________________________________________________________________
slice_289 (Slice)               (None, 26, 42, 16)   0           zero_padding2d_12[0][0]          
__________________________________________________________________________________________________
slice_290 (Slice)               (None, 26, 42, 16)   0           zero_padding2d_12[0][0]          
__________________________________________________________________________________________________
slice_291 (Slice)               (None, 26, 42, 16)   0           zero_padding2d_12[0][0]          
__________________________________________________________________________________________________
slice_292 (Slice)               (None, 26, 42, 16)   0           zero_padding2d_12[0][0]          
__________________________________________________________________________________________________
slice_293 (Slice)               (None, 26, 42, 16)   0           zero_padding2d_12[0][0]          
__________________________________________________________________________________________________
slice_294 (Slice)               (None, 26, 42, 16)   0           zero_padding2d_12[0][0]          
__________________________________________________________________________________________________
slice_295 (Slice)               (None, 26, 42, 16)   0           zero_padding2d_12[0][0]          
__________________________________________________________________________________________________
slice_296 (Slice)               (None, 26, 42, 16)   0           zero_padding2d_12[0][0]          
__________________________________________________________________________________________________
slice_297 (Slice)               (None, 26, 42, 16)   0           zero_padding2d_12[0][0]          
__________________________________________________________________________________________________
slice_298 (Slice)               (None, 26, 42, 16)   0           zero_padding2d_12[0][0]          
__________________________________________________________________________________________________
slice_299 (Slice)               (None, 26, 42, 16)   0           zero_padding2d_12[0][0]          
__________________________________________________________________________________________________
slice_300 (Slice)               (None, 26, 42, 16)   0           zero_padding2d_12[0][0]          
__________________________________________________________________________________________________
slice_301 (Slice)               (None, 26, 42, 16)   0           zero_padding2d_12[0][0]          
__________________________________________________________________________________________________
slice_302 (Slice)               (None, 26, 42, 16)   0           zero_padding2d_12[0][0]          
__________________________________________________________________________________________________
slice_303 (Slice)               (None, 26, 42, 16)   0           zero_padding2d_12[0][0]          
__________________________________________________________________________________________________
slice_304 (Slice)               (None, 26, 42, 16)   0           zero_padding2d_12[0][0]          
__________________________________________________________________________________________________
slice_305 (Slice)               (None, 26, 42, 16)   0           zero_padding2d_12[0][0]          
__________________________________________________________________________________________________
slice_306 (Slice)               (None, 26, 42, 16)   0           zero_padding2d_12[0][0]          
__________________________________________________________________________________________________
slice_307 (Slice)               (None, 26, 42, 16)   0           zero_padding2d_12[0][0]          
__________________________________________________________________________________________________
slice_308 (Slice)               (None, 26, 42, 16)   0           zero_padding2d_12[0][0]          
__________________________________________________________________________________________________
slice_309 (Slice)               (None, 26, 42, 16)   0           zero_padding2d_12[0][0]          
__________________________________________________________________________________________________
slice_310 (Slice)               (None, 26, 42, 16)   0           zero_padding2d_12[0][0]          
__________________________________________________________________________________________________
slice_311 (Slice)               (None, 26, 42, 16)   0           zero_padding2d_12[0][0]          
__________________________________________________________________________________________________
slice_312 (Slice)               (None, 26, 42, 16)   0           zero_padding2d_12[0][0]          
__________________________________________________________________________________________________
slice_313 (Slice)               (None, 26, 42, 16)   0           zero_padding2d_12[0][0]          
__________________________________________________________________________________________________
slice_314 (Slice)               (None, 26, 42, 16)   0           zero_padding2d_12[0][0]          
__________________________________________________________________________________________________
slice_315 (Slice)               (None, 26, 42, 16)   0           zero_padding2d_12[0][0]          
__________________________________________________________________________________________________
slice_316 (Slice)               (None, 26, 42, 16)   0           zero_padding2d_12[0][0]          
__________________________________________________________________________________________________
slice_317 (Slice)               (None, 26, 42, 16)   0           zero_padding2d_12[0][0]          
__________________________________________________________________________________________________
slice_318 (Slice)               (None, 26, 42, 16)   0           zero_padding2d_12[0][0]          
__________________________________________________________________________________________________
slice_319 (Slice)               (None, 26, 42, 16)   0           zero_padding2d_12[0][0]          
__________________________________________________________________________________________________
slice_320 (Slice)               (None, 26, 42, 16)   0           zero_padding2d_12[0][0]          
__________________________________________________________________________________________________
conv2d_330 (Conv2D)             (None, 24, 40, 16)   2304        slice_289[0][0]                  
__________________________________________________________________________________________________
conv2d_331 (Conv2D)             (None, 24, 40, 16)   2304        slice_290[0][0]                  
__________________________________________________________________________________________________
conv2d_332 (Conv2D)             (None, 24, 40, 16)   2304        slice_291[0][0]                  
__________________________________________________________________________________________________
conv2d_333 (Conv2D)             (None, 24, 40, 16)   2304        slice_292[0][0]                  
__________________________________________________________________________________________________
conv2d_334 (Conv2D)             (None, 24, 40, 16)   2304        slice_293[0][0]                  
__________________________________________________________________________________________________
conv2d_335 (Conv2D)             (None, 24, 40, 16)   2304        slice_294[0][0]                  
…
conv2d_1106 (Conv2D)            (None, 12, 20, 32)   9216        slice_981[0][0]                  
__________________________________________________________________________________________________
conv2d_1107 (Conv2D)            (None, 12, 20, 32)   9216        slice_982[0][0]                  
__________________________________________________________________________________________________
conv2d_1108 (Conv2D)            (None, 12, 20, 32)   9216        slice_983[0][0]                  
__________________________________________________________________________________________________
conv2d_1109 (Conv2D)            (None, 12, 20, 32)   9216        slice_984[0][0]                  
__________________________________________________________________________________________________
conv2d_1110 (Conv2D)            (None, 12, 20, 32)   9216        slice_985[0][0]                  
__________________________________________________________________________________________________
conv2d_1111 (Conv2D)            (None, 12, 20, 32)   9216        slice_986[0][0]                  
__________________________________________________________________________________________________
conv2d_1112 (Conv2D)            (None, 12, 20, 32)   9216        slice_987[0][0]                  
__________________________________________________________________________________________________
conv2d_1113 (Conv2D)            (None, 12, 20, 32)   9216        slice_988[0][0]                  
__________________________________________________________________________________________________
conv2d_1114 (Conv2D)            (None, 12, 20, 32)   9216        slice_989[0][0]                  
__________________________________________________________________________________________________
conv2d_1115 (Conv2D)            (None, 12, 20, 32)   9216        slice_990[0][0]                  
__________________________________________________________________________________________________
conv2d_1116 (Conv2D)            (None, 12, 20, 32)   9216        slice_991[0][0]                  
__________________________________________________________________________________________________
conv2d_1117 (Conv2D)            (None, 12, 20, 32)   9216        slice_992[0][0]                  
__________________________________________________________________________________________________
concatenate_31 (Concatenate)    (None, 12, 20, 1024) 0           conv2d_1086[0][0]                
                                                                 conv2d_1087[0][0]                
                                                                 conv2d_1088[0][0]                
                                                                 conv2d_1089[0][0]                
                                                                 conv2d_1090[0][0]                
…
                                                                 conv2d_1113[0][0]                
                                                                 conv2d_1114[0][0]                
                                                                 conv2d_1115[0][0]                
                                                                 conv2d_1116[0][0]                
                                                                 conv2d_1117[0][0]                
__________________________________________________________________________________________________
batch_normalization_96 (BatchNo (None, 12, 20, 1024) 4096        concatenate_31[0][0]             
__________________________________________________________________________________________________
activation_153 (Activation)     (None, 12, 20, 1024) 0           batch_normalization_96[0][0]     
__________________________________________________________________________________________________
conv2d_1118 (Conv2D)            (None, 12, 20, 2048) 2097152     activation_153[0][0]             
__________________________________________________________________________________________________
batch_normalization_97 (BatchNo (None, 12, 20, 2048) 8192        conv2d_1118[0][0]                
__________________________________________________________________________________________________
lambda_31 (Lambda)              (None, 1, 1, 2048)   0           batch_normalization_97[0][0]     
__________________________________________________________________________________________________
conv2d_1120 (Conv2D)            (None, 1, 1, 128)    262272      lambda_31[0][0]                  
__________________________________________________________________________________________________
activation_154 (Activation)     (None, 1, 1, 128)    0           conv2d_1120[0][0]                
__________________________________________________________________________________________________
conv2d_1121 (Conv2D)            (None, 1, 1, 2048)   264192      activation_154[0][0]             
__________________________________________________________________________________________________
activation_155 (Activation)     (None, 1, 1, 2048)   0           conv2d_1121[0][0]                
__________________________________________________________________________________________________
conv2d_1119 (Conv2D)            (None, 12, 20, 2048) 2097152     activation_151[0][0]             
__________________________________________________________________________________________________
multiply_31 (Multiply)          (None, 12, 20, 2048) 0           batch_normalization_97[0][0]     
                                                                 activation_155[0][0]             
__________________________________________________________________________________________________
batch_normalization_98 (BatchNo (None, 12, 20, 2048) 8192        conv2d_1119[0][0]                
__________________________________________________________________________________________________
add_31 (Add)                    (None, 12, 20, 2048) 0           multiply_31[0][0]                
                                                                 batch_normalization_98[0][0]     
__________________________________________________________________________________________________
activation_156 (Activation)     (None, 12, 20, 2048) 0           add_31[0][0]                     
__________________________________________________________________________________________________
conv2d_1122 (Conv2D)            (None, 12, 20, 1024) 2097152     activation_156[0][0]             
__________________________________________________________________________________________________
batch_normalization_99 (BatchNo (None, 12, 20, 1024) 4096        conv2d_1122[0][0]                
__________________________________________________________________________________________________
activation_157 (Activation)     (None, 12, 20, 1024) 0           batch_normalization_99[0][0]     
__________________________________________________________________________________________________
zero_padding2d_34 (ZeroPadding2 (None, 14, 22, 1024) 0           activation_157[0][0]             
__________________________________________________________________________________________________
slice_993 (Slice)               (None, 14, 22, 32)   0           zero_padding2d_34[0][0]          
__________________________________________________________________________________________________
slice_994 (Slice)               (None, 14, 22, 32)   0           zero_padding2d_34[0][0]          
__________________________________________________________________________________________________
slice_995 (Slice)               (None, 14, 22, 32)   0           zero_padding2d_34[0][0]          
__________________________________________________________________________________________________
slice_996 (Slice)               (None, 14, 22, 32)   0           zero_padding2d_34[0][0]          
__________________________________________________________________________________________________
slice_997 (Slice)               (None, 14, 22, 32)   0           zero_padding2d_34[0][0]          
__________________________________________________________________________________________________
slice_998 (Slice)               (None, 14, 22, 32)   0           zero_padding2d_34[0][0]          
__________________________________________________________________________________________________
slice_999 (Slice)               (None, 14, 22, 32)   0           zero_padding2d_34[0][0]          
__________________________________________________________________________________________________
slice_1000 (Slice)              (None, 14, 22, 32)   0           zero_padding2d_34[0][0]          
__________________________________________________________________________________________________
slice_1001 (Slice)              (None, 14, 22, 32)   0           zero_padding2d_34[0][0]          
__________________________________________________________________________________________________
slice_1002 (Slice)              (None, 14, 22, 32)   0           zero_padding2d_34[0][0]          
__________________________________________________________________________________________________
slice_1003 (Slice)              (None, 14, 22, 32)   0           zero_padding2d_34[0][0]          
__________________________________________________________________________________________________
slice_1004 (Slice)              (None, 14, 22, 32)   0           zero_padding2d_34[0][0]          
__________________________________________________________________________________________________
slice_1005 (Slice)              (None, 14, 22, 32)   0           zero_padding2d_34[0][0]          
__________________________________________________________________________________________________
slice_1006 (Slice)              (None, 14, 22, 32)   0           zero_padding2d_34[0][0]          
__________________________________________________________________________________________________
slice_1007 (Slice)              (None, 14, 22, 32)   0           zero_padding2d_34[0][0]          
__________________________________________________________________________________________________
slice_1008 (Slice)              (None, 14, 22, 32)   0           zero_padding2d_34[0][0]          
__________________________________________________________________________________________________
slice_1009 (Slice)              (None, 14, 22, 32)   0           zero_padding2d_34[0][0]          
__________________________________________________________________________________________________
slice_1010 (Slice)              (None, 14, 22, 32)   0           zero_padding2d_34[0][0]          
__________________________________________________________________________________________________
slice_1011 (Slice)              (None, 14, 22, 32)   0           zero_padding2d_34[0][0]          
__________________________________________________________________________________________________
slice_1012 (Slice)              (None, 14, 22, 32)   0           zero_padding2d_34[0][0]          
__________________________________________________________________________________________________
slice_1013 (Slice)              (None, 14, 22, 32)   0           zero_padding2d_34[0][0]          
__________________________________________________________________________________________________
slice_1014 (Slice)              (None, 14, 22, 32)   0           zero_padding2d_34[0][0]          
__________________________________________________________________________________________________
slice_1015 (Slice)              (None, 14, 22, 32)   0           zero_padding2d_34[0][0]          
__________________________________________________________________________________________________
slice_1016 (Slice)              (None, 14, 22, 32)   0           zero_padding2d_34[0][0]          
__________________________________________________________________________________________________
slice_1017 (Slice)              (None, 14, 22, 32)   0           zero_padding2d_34[0][0]          
__________________________________________________________________________________________________
slice_1018 (Slice)              (None, 14, 22, 32)   0           zero_padding2d_34[0][0]          
__________________________________________________________________________________________________
slice_1019 (Slice)              (None, 14, 22, 32)   0           zero_padding2d_34[0][0]          
__________________________________________________________________________________________________
slice_1020 (Slice)              (None, 14, 22, 32)   0           zero_padding2d_34[0][0]          
__________________________________________________________________________________________________
slice_1021 (Slice)              (None, 14, 22, 32)   0           zero_padding2d_34[0][0]          
__________________________________________________________________________________________________
slice_1022 (Slice)              (None, 14, 22, 32)   0           zero_padding2d_34[0][0]          
__________________________________________________________________________________________________
slice_1023 (Slice)              (None, 14, 22, 32)   0           zero_padding2d_34[0][0]          
__________________________________________________________________________________________________
slice_1024 (Slice)              (None, 14, 22, 32)   0           zero_padding2d_34[0][0]          
__________________________________________________________________________________________________
conv2d_1123 (Conv2D)            (None, 12, 20, 32)   9216        slice_993[0][0]                  
__________________________________________________________________________________________________
conv2d_1124 (Conv2D)            (None, 12, 20, 32)   9216        slice_994[0][0]                  
__________________________________________________________________________________________________
conv2d_1125 (Conv2D)            (None, 12, 20, 32)   9216        slice_995[0][0]                  
__________________________________________________________________________________________________
conv2d_1126 (Conv2D)            (None, 12, 20, 32)   9216        slice_996[0][0]                  
__________________________________________________________________________________________________
conv2d_1127 (Conv2D)            (None, 12, 20, 32)   9216        slice_997[0][0]                  
__________________________________________________________________________________________________
conv2d_1128 (Conv2D)            (None, 12, 20, 32)   9216        slice_998[0][0]                  
__________________________________________________________________________________________________
conv2d_1129 (Conv2D)            (None, 12, 20, 32)   9216        slice_999[0][0]                  
__________________________________________________________________________________________________
conv2d_1130 (Conv2D)            (None, 12, 20, 32)   9216        slice_1000[0][0]                 
__________________________________________________________________________________________________
conv2d_1131 (Conv2D)            (None, 12, 20, 32)   9216        slice_1001[0][0]                 
__________________________________________________________________________________________________
conv2d_1132 (Conv2D)            (None, 12, 20, 32)   9216        slice_1002[0][0]                 
__________________________________________________________________________________________________
conv2d_1133 (Conv2D)            (None, 12, 20, 32)   9216        slice_1003[0][0]                 
__________________________________________________________________________________________________
conv2d_1134 (Conv2D)            (None, 12, 20, 32)   9216        slice_1004[0][0]                 
__________________________________________________________________________________________________
conv2d_1135 (Conv2D)            (None, 12, 20, 32)   9216        slice_1005[0][0]                 
__________________________________________________________________________________________________
conv2d_1136 (Conv2D)            (None, 12, 20, 32)   9216        slice_1006[0][0]                 
__________________________________________________________________________________________________
conv2d_1137 (Conv2D)            (None, 12, 20, 32)   9216        slice_1007[0][0]                 
__________________________________________________________________________________________________
conv2d_1138 (Conv2D)            (None, 12, 20, 32)   9216        slice_1008[0][0]                 
__________________________________________________________________________________________________
conv2d_1139 (Conv2D)            (None, 12, 20, 32)   9216        slice_1009[0][0]                 
__________________________________________________________________________________________________
conv2d_1140 (Conv2D)            (None, 12, 20, 32)   9216        slice_1010[0][0]                 
__________________________________________________________________________________________________
conv2d_1141 (Conv2D)            (None, 12, 20, 32)   9216        slice_1011[0][0]                 
__________________________________________________________________________________________________
conv2d_1142 (Conv2D)            (None, 12, 20, 32)   9216        slice_1012[0][0]                 
__________________________________________________________________________________________________
conv2d_1143 (Conv2D)            (None, 12, 20, 32)   9216        slice_1013[0][0]                 
__________________________________________________________________________________________________
conv2d_1144 (Conv2D)            (None, 12, 20, 32)   9216        slice_1014[0][0]                 
__________________________________________________________________________________________________
conv2d_1145 (Conv2D)            (None, 12, 20, 32)   9216        slice_1015[0][0]                 
__________________________________________________________________________________________________
conv2d_1146 (Conv2D)            (None, 12, 20, 32)   9216        slice_1016[0][0]                 
__________________________________________________________________________________________________
conv2d_1147 (Conv2D)            (None, 12, 20, 32)   9216        slice_1017[0][0]                 
__________________________________________________________________________________________________
conv2d_1148 (Conv2D)            (None, 12, 20, 32)   9216        slice_1018[0][0]                 
__________________________________________________________________________________________________
conv2d_1149 (Conv2D)            (None, 12, 20, 32)   9216        slice_1019[0][0]                 
__________________________________________________________________________________________________
conv2d_1150 (Conv2D)            (None, 12, 20, 32)   9216        slice_1020[0][0]                 
__________________________________________________________________________________________________
conv2d_1151 (Conv2D)            (None, 12, 20, 32)   9216        slice_1021[0][0]                 
__________________________________________________________________________________________________
conv2d_1152 (Conv2D)            (None, 12, 20, 32)   9216        slice_1022[0][0]                 
__________________________________________________________________________________________________
conv2d_1153 (Conv2D)            (None, 12, 20, 32)   9216        slice_1023[0][0]                 
__________________________________________________________________________________________________
conv2d_1154 (Conv2D)            (None, 12, 20, 32)   9216        slice_1024[0][0]                 
__________________________________________________________________________________________________
concatenate_32 (Concatenate)    (None, 12, 20, 1024) 0           conv2d_1123[0][0]                
                                                                 conv2d_1124[0][0]                
                                                                 conv2d_1125[0][0]                
                                                                 conv2d_1126[0][0]                
                                                                 conv2d_1127[0][0]                
…
                                                                 conv2d_1150[0][0]                
                                                                 conv2d_1151[0][0]                
                                                                 conv2d_1152[0][0]                
                                                                 conv2d_1153[0][0]                
                                                                 conv2d_1154[0][0]                
__________________________________________________________________________________________________
batch_normalization_100 (BatchN (None, 12, 20, 1024) 4096        concatenate_32[0][0]             
__________________________________________________________________________________________________
activation_158 (Activation)     (None, 12, 20, 1024) 0           batch_normalization_100[0][0]    
__________________________________________________________________________________________________
conv2d_1155 (Conv2D)            (None, 12, 20, 2048) 2097152     activation_158[0][0]             
__________________________________________________________________________________________________
batch_normalization_101 (BatchN (None, 12, 20, 2048) 8192        conv2d_1155[0][0]                
__________________________________________________________________________________________________
lambda_32 (Lambda)              (None, 1, 1, 2048)   0           batch_normalization_101[0][0]    
__________________________________________________________________________________________________
conv2d_1156 (Conv2D)            (None, 1, 1, 128)    262272      lambda_32[0][0]                  
__________________________________________________________________________________________________
activation_159 (Activation)     (None, 1, 1, 128)    0           conv2d_1156[0][0]                
__________________________________________________________________________________________________
conv2d_1157 (Conv2D)            (None, 1, 1, 2048)   264192      activation_159[0][0]             
__________________________________________________________________________________________________
activation_160 (Activation)     (None, 1, 1, 2048)   0           conv2d_1157[0][0]                
__________________________________________________________________________________________________
multiply_32 (Multiply)          (None, 12, 20, 2048) 0           batch_normalization_101[0][0]    
                                                                 activation_160[0][0]             
__________________________________________________________________________________________________
add_32 (Add)                    (None, 12, 20, 2048) 0           multiply_32[0][0]                
                                                                 activation_156[0][0]             
__________________________________________________________________________________________________
activation_161 (Activation)     (None, 12, 20, 2048) 0           add_32[0][0]                     
__________________________________________________________________________________________________
conv2d_1158 (Conv2D)            (None, 12, 20, 1024) 2097152     activation_161[0][0]             
__________________________________________________________________________________________________
batch_normalization_102 (BatchN (None, 12, 20, 1024) 4096        conv2d_1158[0][0]                
__________________________________________________________________________________________________
activation_162 (Activation)     (None, 12, 20, 1024) 0           batch_normalization_102[0][0]    
__________________________________________________________________________________________________
zero_padding2d_35 (ZeroPadding2 (None, 14, 22, 1024) 0           activation_162[0][0]             
__________________________________________________________________________________________________
slice_1025 (Slice)              (None, 14, 22, 32)   0           zero_padding2d_35[0][0]          
__________________________________________________________________________________________________
slice_1026 (Slice)              (None, 14, 22, 32)   0           zero_padding2d_35[0][0]          
__________________________________________________________________________________________________
slice_1027 (Slice)              (None, 14, 22, 32)   0           zero_padding2d_35[0][0]          
__________________________________________________________________________________________________
slice_1028 (Slice)              (None, 14, 22, 32)   0           zero_padding2d_35[0][0]          
__________________________________________________________________________________________________
slice_1029 (Slice)              (None, 14, 22, 32)   0           zero_padding2d_35[0][0]          
__________________________________________________________________________________________________
slice_1030 (Slice)              (None, 14, 22, 32)   0           zero_padding2d_35[0][0]          
__________________________________________________________________________________________________
slice_1031 (Slice)              (None, 14, 22, 32)   0           zero_padding2d_35[0][0]          
__________________________________________________________________________________________________
slice_1032 (Slice)              (None, 14, 22, 32)   0           zero_padding2d_35[0][0]          
__________________________________________________________________________________________________
slice_1033 (Slice)              (None, 14, 22, 32)   0           zero_padding2d_35[0][0]          
__________________________________________________________________________________________________
slice_1034 (Slice)              (None, 14, 22, 32)   0           zero_padding2d_35[0][0]          
__________________________________________________________________________________________________
slice_1035 (Slice)              (None, 14, 22, 32)   0           zero_padding2d_35[0][0]          
__________________________________________________________________________________________________
slice_1036 (Slice)              (None, 14, 22, 32)   0           zero_padding2d_35[0][0]          
__________________________________________________________________________________________________
slice_1037 (Slice)              (None, 14, 22, 32)   0           zero_padding2d_35[0][0]          
__________________________________________________________________________________________________
slice_1038 (Slice)              (None, 14, 22, 32)   0           zero_padding2d_35[0][0]          
__________________________________________________________________________________________________
slice_1039 (Slice)              (None, 14, 22, 32)   0           zero_padding2d_35[0][0]          
__________________________________________________________________________________________________
slice_1040 (Slice)              (None, 14, 22, 32)   0           zero_padding2d_35[0][0]          
__________________________________________________________________________________________________
slice_1041 (Slice)              (None, 14, 22, 32)   0           zero_padding2d_35[0][0]          
__________________________________________________________________________________________________
slice_1042 (Slice)              (None, 14, 22, 32)   0           zero_padding2d_35[0][0]          
__________________________________________________________________________________________________
slice_1043 (Slice)              (None, 14, 22, 32)   0           zero_padding2d_35[0][0]          
__________________________________________________________________________________________________
slice_1044 (Slice)              (None, 14, 22, 32)   0           zero_padding2d_35[0][0]          
__________________________________________________________________________________________________
slice_1045 (Slice)              (None, 14, 22, 32)   0           zero_padding2d_35[0][0]          
__________________________________________________________________________________________________
slice_1046 (Slice)              (None, 14, 22, 32)   0           zero_padding2d_35[0][0]          
__________________________________________________________________________________________________
slice_1047 (Slice)              (None, 14, 22, 32)   0           zero_padding2d_35[0][0]          
__________________________________________________________________________________________________
slice_1048 (Slice)              (None, 14, 22, 32)   0           zero_padding2d_35[0][0]          
__________________________________________________________________________________________________
slice_1049 (Slice)              (None, 14, 22, 32)   0           zero_padding2d_35[0][0]          
__________________________________________________________________________________________________
slice_1050 (Slice)              (None, 14, 22, 32)   0           zero_padding2d_35[0][0]          
__________________________________________________________________________________________________
slice_1051 (Slice)              (None, 14, 22, 32)   0           zero_padding2d_35[0][0]          
__________________________________________________________________________________________________
slice_1052 (Slice)              (None, 14, 22, 32)   0           zero_padding2d_35[0][0]          
__________________________________________________________________________________________________
slice_1053 (Slice)              (None, 14, 22, 32)   0           zero_padding2d_35[0][0]          
__________________________________________________________________________________________________
slice_1054 (Slice)              (None, 14, 22, 32)   0           zero_padding2d_35[0][0]          
__________________________________________________________________________________________________
slice_1055 (Slice)              (None, 14, 22, 32)   0           zero_padding2d_35[0][0]          
__________________________________________________________________________________________________
slice_1056 (Slice)              (None, 14, 22, 32)   0           zero_padding2d_35[0][0]          
__________________________________________________________________________________________________
conv2d_1159 (Conv2D)            (None, 12, 20, 32)   9216        slice_1025[0][0]                 
__________________________________________________________________________________________________
conv2d_1160 (Conv2D)            (None, 12, 20, 32)   9216        slice_1026[0][0]                 
__________________________________________________________________________________________________
conv2d_1161 (Conv2D)            (None, 12, 20, 32)   9216        slice_1027[0][0]                 
__________________________________________________________________________________________________
conv2d_1162 (Conv2D)            (None, 12, 20, 32)   9216        slice_1028[0][0]                 
__________________________________________________________________________________________________
conv2d_1163 (Conv2D)            (None, 12, 20, 32)   9216        slice_1029[0][0]                 
__________________________________________________________________________________________________
conv2d_1164 (Conv2D)            (None, 12, 20, 32)   9216        slice_1030[0][0]                 
__________________________________________________________________________________________________
conv2d_1165 (Conv2D)            (None, 12, 20, 32)   9216        slice_1031[0][0]                 
__________________________________________________________________________________________________
conv2d_1166 (Conv2D)            (None, 12, 20, 32)   9216        slice_1032[0][0]                 
__________________________________________________________________________________________________
conv2d_1167 (Conv2D)            (None, 12, 20, 32)   9216        slice_1033[0][0]                 
__________________________________________________________________________________________________
conv2d_1168 (Conv2D)            (None, 12, 20, 32)   9216        slice_1034[0][0]                 
__________________________________________________________________________________________________
conv2d_1169 (Conv2D)            (None, 12, 20, 32)   9216        slice_1035[0][0]                 
__________________________________________________________________________________________________
conv2d_1170 (Conv2D)            (None, 12, 20, 32)   9216        slice_1036[0][0]                 
__________________________________________________________________________________________________
conv2d_1171 (Conv2D)            (None, 12, 20, 32)   9216        slice_1037[0][0]                 
__________________________________________________________________________________________________
conv2d_1172 (Conv2D)            (None, 12, 20, 32)   9216        slice_1038[0][0]                 
__________________________________________________________________________________________________
conv2d_1173 (Conv2D)            (None, 12, 20, 32)   9216        slice_1039[0][0]                 
__________________________________________________________________________________________________
conv2d_1174 (Conv2D)            (None, 12, 20, 32)   9216        slice_1040[0][0]                 
__________________________________________________________________________________________________
conv2d_1175 (Conv2D)            (None, 12, 20, 32)   9216        slice_1041[0][0]                 
__________________________________________________________________________________________________
conv2d_1176 (Conv2D)            (None, 12, 20, 32)   9216        slice_1042[0][0]                 
__________________________________________________________________________________________________
conv2d_1177 (Conv2D)            (None, 12, 20, 32)   9216        slice_1043[0][0]                 
__________________________________________________________________________________________________
conv2d_1178 (Conv2D)            (None, 12, 20, 32)   9216        slice_1044[0][0]                 
__________________________________________________________________________________________________
conv2d_1179 (Conv2D)            (None, 12, 20, 32)   9216        slice_1045[0][0]                 
__________________________________________________________________________________________________
conv2d_1180 (Conv2D)            (None, 12, 20, 32)   9216        slice_1046[0][0]                 
__________________________________________________________________________________________________
conv2d_1181 (Conv2D)            (None, 12, 20, 32)   9216        slice_1047[0][0]                 
__________________________________________________________________________________________________
conv2d_1182 (Conv2D)            (None, 12, 20, 32)   9216        slice_1048[0][0]                 
__________________________________________________________________________________________________
conv2d_1183 (Conv2D)            (None, 12, 20, 32)   9216        slice_1049[0][0]                 
__________________________________________________________________________________________________
conv2d_1184 (Conv2D)            (None, 12, 20, 32)   9216        slice_1050[0][0]                 
__________________________________________________________________________________________________
conv2d_1185 (Conv2D)            (None, 12, 20, 32)   9216        slice_1051[0][0]                 
__________________________________________________________________________________________________
conv2d_1186 (Conv2D)            (None, 12, 20, 32)   9216        slice_1052[0][0]                 
__________________________________________________________________________________________________
conv2d_1187 (Conv2D)            (None, 12, 20, 32)   9216        slice_1053[0][0]                 
__________________________________________________________________________________________________
conv2d_1188 (Conv2D)            (None, 12, 20, 32)   9216        slice_1054[0][0]                 
__________________________________________________________________________________________________
conv2d_1189 (Conv2D)            (None, 12, 20, 32)   9216        slice_1055[0][0]                 
__________________________________________________________________________________________________
conv2d_1190 (Conv2D)            (None, 12, 20, 32)   9216        slice_1056[0][0]                 
__________________________________________________________________________________________________
concatenate_33 (Concatenate)    (None, 12, 20, 1024) 0           conv2d_1159[0][0]                
                                                                 conv2d_1160[0][0]                
                                                                 conv2d_1161[0][0]                
                                                                 conv2d_1162[0][0]                
                                                                 conv2d_1163[0][0]                
…
                                                                 conv2d_1186[0][0]                
                                                                 conv2d_1187[0][0]                
                                                                 conv2d_1188[0][0]                
                                                                 conv2d_1189[0][0]                
                                                                 conv2d_1190[0][0]                
__________________________________________________________________________________________________
batch_normalization_103 (BatchN (None, 12, 20, 1024) 4096        concatenate_33[0][0]             
__________________________________________________________________________________________________
activation_163 (Activation)     (None, 12, 20, 1024) 0           batch_normalization_103[0][0]    
__________________________________________________________________________________________________
conv2d_1191 (Conv2D)            (None, 12, 20, 2048) 2097152     activation_163[0][0]             
__________________________________________________________________________________________________
batch_normalization_104 (BatchN (None, 12, 20, 2048) 8192        conv2d_1191[0][0]                
__________________________________________________________________________________________________
lambda_33 (Lambda)              (None, 1, 1, 2048)   0           batch_normalization_104[0][0]    
__________________________________________________________________________________________________
conv2d_1192 (Conv2D)            (None, 1, 1, 128)    262272      lambda_33[0][0]                  
__________________________________________________________________________________________________
activation_164 (Activation)     (None, 1, 1, 128)    0           conv2d_1192[0][0]                
__________________________________________________________________________________________________
conv2d_1193 (Conv2D)            (None, 1, 1, 2048)   264192      activation_164[0][0]             
__________________________________________________________________________________________________
activation_165 (Activation)     (None, 1, 1, 2048)   0           conv2d_1193[0][0]                
__________________________________________________________________________________________________
multiply_33 (Multiply)          (None, 12, 20, 2048) 0           batch_normalization_104[0][0]    
                                                                 activation_165[0][0]             
__________________________________________________________________________________________________
add_33 (Add)                    (None, 12, 20, 2048) 0           multiply_33[0][0]                
                                                                 activation_161[0][0]             
__________________________________________________________________________________________________
activation_166 (Activation)     (None, 12, 20, 2048) 0           add_33[0][0]                     
__________________________________________________________________________________________________
decoder_stage0_upsample (UpSamp (None, 24, 40, 2048) 0           activation_166[0][0]             
__________________________________________________________________________________________________
concatenate_34 (Concatenate)    (None, 24, 40, 3072) 0           decoder_stage0_upsample[0][0]    
                                                                 activation_151[0][0]             
__________________________________________________________________________________________________
decoder_stage0_conv1 (Conv2D)   (None, 24, 40, 256)  7077888     concatenate_34[0][0]             
__________________________________________________________________________________________________
decoder_stage0_bn1 (BatchNormal (None, 24, 40, 256)  1024        decoder_stage0_conv1[0][0]       
__________________________________________________________________________________________________
decoder_stage0_relu1 (Activatio (None, 24, 40, 256)  0           decoder_stage0_bn1[0][0]         
__________________________________________________________________________________________________
decoder_stage0_conv2 (Conv2D)   (None, 24, 40, 256)  589824      decoder_stage0_relu1[0][0]       
__________________________________________________________________________________________________
decoder_stage0_bn2 (BatchNormal (None, 24, 40, 256)  1024        decoder_stage0_conv2[0][0]       
__________________________________________________________________________________________________
decoder_stage0_relu2 (Activatio (None, 24, 40, 256)  0           decoder_stage0_bn2[0][0]         
__________________________________________________________________________________________________
decoder_stage1_upsample (UpSamp (None, 48, 80, 256)  0           decoder_stage0_relu2[0][0]       
__________________________________________________________________________________________________
concatenate_35 (Concatenate)    (None, 48, 80, 768)  0           decoder_stage1_upsample[0][0]    
                                                                 activation_36[0][0]              
__________________________________________________________________________________________________
decoder_stage1_conv1 (Conv2D)   (None, 48, 80, 128)  884736      concatenate_35[0][0]             
__________________________________________________________________________________________________
decoder_stage1_bn1 (BatchNormal (None, 48, 80, 128)  512         decoder_stage1_conv1[0][0]       
__________________________________________________________________________________________________
decoder_stage1_relu1 (Activatio (None, 48, 80, 128)  0           decoder_stage1_bn1[0][0]         
__________________________________________________________________________________________________
decoder_stage1_conv2 (Conv2D)   (None, 48, 80, 128)  147456      decoder_stage1_relu1[0][0]       
__________________________________________________________________________________________________
decoder_stage1_bn2 (BatchNormal (None, 48, 80, 128)  512         decoder_stage1_conv2[0][0]       
__________________________________________________________________________________________________
decoder_stage1_relu2 (Activatio (None, 48, 80, 128)  0           decoder_stage1_bn2[0][0]         
__________________________________________________________________________________________________
decoder_stage2_upsample (UpSamp (None, 96, 160, 128) 0           decoder_stage1_relu2[0][0]       
__________________________________________________________________________________________________
concatenate_36 (Concatenate)    (None, 96, 160, 384) 0           decoder_stage2_upsample[0][0]    
                                                                 activation_16[0][0]              
__________________________________________________________________________________________________
decoder_stage2_conv1 (Conv2D)   (None, 96, 160, 64)  221184      concatenate_36[0][0]             
__________________________________________________________________________________________________
decoder_stage2_bn1 (BatchNormal (None, 96, 160, 64)  256         decoder_stage2_conv1[0][0]       
__________________________________________________________________________________________________
decoder_stage2_relu1 (Activatio (None, 96, 160, 64)  0           decoder_stage2_bn1[0][0]         
__________________________________________________________________________________________________
decoder_stage2_conv2 (Conv2D)   (None, 96, 160, 64)  36864       decoder_stage2_relu1[0][0]       
__________________________________________________________________________________________________
decoder_stage2_bn2 (BatchNormal (None, 96, 160, 64)  256         decoder_stage2_conv2[0][0]       
__________________________________________________________________________________________________
decoder_stage2_relu2 (Activatio (None, 96, 160, 64)  0           decoder_stage2_bn2[0][0]         
__________________________________________________________________________________________________
decoder_stage3_upsample (UpSamp (None, 192, 320, 64) 0           decoder_stage2_relu2[0][0]       
__________________________________________________________________________________________________
concatenate_37 (Concatenate)    (None, 192, 320, 128 0           decoder_stage3_upsample[0][0]    
                                                                 activation_1[0][0]               
__________________________________________________________________________________________________
decoder_stage3_conv1 (Conv2D)   (None, 192, 320, 32) 36864       concatenate_37[0][0]             
__________________________________________________________________________________________________
decoder_stage3_bn1 (BatchNormal (None, 192, 320, 32) 128         decoder_stage3_conv1[0][0]       
__________________________________________________________________________________________________
decoder_stage3_relu1 (Activatio (None, 192, 320, 32) 0           decoder_stage3_bn1[0][0]         
__________________________________________________________________________________________________
decoder_stage3_conv2 (Conv2D)   (None, 192, 320, 32) 9216        decoder_stage3_relu1[0][0]       
__________________________________________________________________________________________________
decoder_stage3_bn2 (BatchNormal (None, 192, 320, 32) 128         decoder_stage3_conv2[0][0]       
__________________________________________________________________________________________________
decoder_stage3_relu2 (Activatio (None, 192, 320, 32) 0           decoder_stage3_bn2[0][0]         
__________________________________________________________________________________________________
decoder_stage4_upsample (UpSamp (None, 384, 640, 32) 0           decoder_stage3_relu2[0][0]       
__________________________________________________________________________________________________
decoder_stage4_conv1 (Conv2D)   (None, 384, 640, 16) 4608        decoder_stage4_upsample[0][0]    
__________________________________________________________________________________________________
decoder_stage4_bn1 (BatchNormal (None, 384, 640, 16) 64          decoder_stage4_conv1[0][0]       
__________________________________________________________________________________________________
decoder_stage4_relu1 (Activatio (None, 384, 640, 16) 0           decoder_stage4_bn1[0][0]         
__________________________________________________________________________________________________
decoder_stage4_conv2 (Conv2D)   (None, 384, 640, 16) 2304        decoder_stage4_relu1[0][0]       
__________________________________________________________________________________________________
decoder_stage4_bn2 (BatchNormal (None, 384, 640, 16) 64          decoder_stage4_conv2[0][0]       
__________________________________________________________________________________________________
decoder_stage4_relu2 (Activatio (None, 384, 640, 16) 0           decoder_stage4_bn2[0][0]         
__________________________________________________________________________________________________
final_conv (Conv2D)             (None, 384, 640, 3)  435         decoder_stage4_relu2[0][0]       
__________________________________________________________________________________________________
softmax (Activation)            (None, 384, 640, 3)  0           final_conv[0][0]                 
==================================================================================================
Total params: 56,059,619
Trainable params: 55,919,779
Non-trainable params: 139,840
__________________________________________________________________________________________________
Optimizer: <keras.optimizers.Adam object at 0x7fed02b212b0>, learning rate: 0.0001, loss: [<function dice_coef_multiclass_loss at 0x7fed53668d90>], metrics: ['categorical_accuracy']
…
