Date and time: 2019-03-31 15-53-53

Datasets used: ['/home/vostankovich/CycleGANToD/results/day2night_inno_cyclegan/test_latest/images']

894
447
DOING AUGMENTATION
DOING GAN
Model summary:
__________________________________________________________________________________________________
Layer (type)                    Output Shape         Param #     Connected to                     
==================================================================================================
data (InputLayer)               (None, 256, 640, 3)  0                                            
__________________________________________________________________________________________________
bn_data (BatchNormalization)    (None, 256, 640, 3)  9           data[0][0]                       
__________________________________________________________________________________________________
zero_padding2d_1 (ZeroPadding2D (None, 262, 646, 3)  0           bn_data[0][0]                    
__________________________________________________________________________________________________
conv0 (Conv2D)                  (None, 128, 320, 64) 9408        zero_padding2d_1[0][0]           
__________________________________________________________________________________________________
bn0 (BatchNormalization)        (None, 128, 320, 64) 256         conv0[0][0]                      
__________________________________________________________________________________________________
relu0 (Activation)              (None, 128, 320, 64) 0           bn0[0][0]                        
__________________________________________________________________________________________________
zero_padding2d_2 (ZeroPadding2D (None, 130, 322, 64) 0           relu0[0][0]                      
__________________________________________________________________________________________________
pooling0 (MaxPooling2D)         (None, 64, 160, 64)  0           zero_padding2d_2[0][0]           
__________________________________________________________________________________________________
stage1_unit1_bn1 (BatchNormaliz (None, 64, 160, 64)  256         pooling0[0][0]                   
__________________________________________________________________________________________________
stage1_unit1_relu1 (Activation) (None, 64, 160, 64)  0           stage1_unit1_bn1[0][0]           
__________________________________________________________________________________________________
zero_padding2d_3 (ZeroPadding2D (None, 66, 162, 64)  0           stage1_unit1_relu1[0][0]         
__________________________________________________________________________________________________
stage1_unit1_conv1 (Conv2D)     (None, 64, 160, 64)  36864       zero_padding2d_3[0][0]           
__________________________________________________________________________________________________
stage1_unit1_bn2 (BatchNormaliz (None, 64, 160, 64)  256         stage1_unit1_conv1[0][0]         
__________________________________________________________________________________________________
stage1_unit1_relu2 (Activation) (None, 64, 160, 64)  0           stage1_unit1_bn2[0][0]           
__________________________________________________________________________________________________
zero_padding2d_4 (ZeroPadding2D (None, 66, 162, 64)  0           stage1_unit1_relu2[0][0]         
__________________________________________________________________________________________________
stage1_unit1_conv2 (Conv2D)     (None, 64, 160, 64)  36864       zero_padding2d_4[0][0]           
__________________________________________________________________________________________________
stage1_unit1_sc (Conv2D)        (None, 64, 160, 64)  4096        stage1_unit1_relu1[0][0]         
__________________________________________________________________________________________________
add_1 (Add)                     (None, 64, 160, 64)  0           stage1_unit1_conv2[0][0]         
                                                                 stage1_unit1_sc[0][0]            
__________________________________________________________________________________________________
stage1_unit2_bn1 (BatchNormaliz (None, 64, 160, 64)  256         add_1[0][0]                      
__________________________________________________________________________________________________
stage1_unit2_relu1 (Activation) (None, 64, 160, 64)  0           stage1_unit2_bn1[0][0]           
__________________________________________________________________________________________________
zero_padding2d_5 (ZeroPadding2D (None, 66, 162, 64)  0           stage1_unit2_relu1[0][0]         
__________________________________________________________________________________________________
stage1_unit2_conv1 (Conv2D)     (None, 64, 160, 64)  36864       zero_padding2d_5[0][0]           
__________________________________________________________________________________________________
stage1_unit2_bn2 (BatchNormaliz (None, 64, 160, 64)  256         stage1_unit2_conv1[0][0]         
__________________________________________________________________________________________________
stage1_unit2_relu2 (Activation) (None, 64, 160, 64)  0           stage1_unit2_bn2[0][0]           
__________________________________________________________________________________________________
zero_padding2d_6 (ZeroPadding2D (None, 66, 162, 64)  0           stage1_unit2_relu2[0][0]         
__________________________________________________________________________________________________
stage1_unit2_conv2 (Conv2D)     (None, 64, 160, 64)  36864       zero_padding2d_6[0][0]           
__________________________________________________________________________________________________
add_2 (Add)                     (None, 64, 160, 64)  0           stage1_unit2_conv2[0][0]         
                                                                 add_1[0][0]                      
__________________________________________________________________________________________________
stage2_unit1_bn1 (BatchNormaliz (None, 64, 160, 64)  256         add_2[0][0]                      
__________________________________________________________________________________________________
stage2_unit1_relu1 (Activation) (None, 64, 160, 64)  0           stage2_unit1_bn1[0][0]           
__________________________________________________________________________________________________
zero_padding2d_7 (ZeroPadding2D (None, 66, 162, 64)  0           stage2_unit1_relu1[0][0]         
__________________________________________________________________________________________________
stage2_unit1_conv1 (Conv2D)     (None, 32, 80, 128)  73728       zero_padding2d_7[0][0]           
__________________________________________________________________________________________________
stage2_unit1_bn2 (BatchNormaliz (None, 32, 80, 128)  512         stage2_unit1_conv1[0][0]         
__________________________________________________________________________________________________
stage2_unit1_relu2 (Activation) (None, 32, 80, 128)  0           stage2_unit1_bn2[0][0]           
__________________________________________________________________________________________________
zero_padding2d_8 (ZeroPadding2D (None, 34, 82, 128)  0           stage2_unit1_relu2[0][0]         
__________________________________________________________________________________________________
stage2_unit1_conv2 (Conv2D)     (None, 32, 80, 128)  147456      zero_padding2d_8[0][0]           
__________________________________________________________________________________________________
stage2_unit1_sc (Conv2D)        (None, 32, 80, 128)  8192        stage2_unit1_relu1[0][0]         
__________________________________________________________________________________________________
add_3 (Add)                     (None, 32, 80, 128)  0           stage2_unit1_conv2[0][0]         
                                                                 stage2_unit1_sc[0][0]            
__________________________________________________________________________________________________
stage2_unit2_bn1 (BatchNormaliz (None, 32, 80, 128)  512         add_3[0][0]                      
__________________________________________________________________________________________________
stage2_unit2_relu1 (Activation) (None, 32, 80, 128)  0           stage2_unit2_bn1[0][0]           
__________________________________________________________________________________________________
zero_padding2d_9 (ZeroPadding2D (None, 34, 82, 128)  0           stage2_unit2_relu1[0][0]         
__________________________________________________________________________________________________
stage2_unit2_conv1 (Conv2D)     (None, 32, 80, 128)  147456      zero_padding2d_9[0][0]           
__________________________________________________________________________________________________
stage2_unit2_bn2 (BatchNormaliz (None, 32, 80, 128)  512         stage2_unit2_conv1[0][0]         
__________________________________________________________________________________________________
stage2_unit2_relu2 (Activation) (None, 32, 80, 128)  0           stage2_unit2_bn2[0][0]           
__________________________________________________________________________________________________
zero_padding2d_10 (ZeroPadding2 (None, 34, 82, 128)  0           stage2_unit2_relu2[0][0]         
__________________________________________________________________________________________________
stage2_unit2_conv2 (Conv2D)     (None, 32, 80, 128)  147456      zero_padding2d_10[0][0]          
__________________________________________________________________________________________________
add_4 (Add)                     (None, 32, 80, 128)  0           stage2_unit2_conv2[0][0]         
                                                                 add_3[0][0]                      
__________________________________________________________________________________________________
stage3_unit1_bn1 (BatchNormaliz (None, 32, 80, 128)  512         add_4[0][0]                      
__________________________________________________________________________________________________
stage3_unit1_relu1 (Activation) (None, 32, 80, 128)  0           stage3_unit1_bn1[0][0]           
__________________________________________________________________________________________________
zero_padding2d_11 (ZeroPadding2 (None, 34, 82, 128)  0           stage3_unit1_relu1[0][0]         
__________________________________________________________________________________________________
stage3_unit1_conv1 (Conv2D)     (None, 16, 40, 256)  294912      zero_padding2d_11[0][0]          
__________________________________________________________________________________________________
stage3_unit1_bn2 (BatchNormaliz (None, 16, 40, 256)  1024        stage3_unit1_conv1[0][0]         
__________________________________________________________________________________________________
stage3_unit1_relu2 (Activation) (None, 16, 40, 256)  0           stage3_unit1_bn2[0][0]           
__________________________________________________________________________________________________
zero_padding2d_12 (ZeroPadding2 (None, 18, 42, 256)  0           stage3_unit1_relu2[0][0]         
__________________________________________________________________________________________________
stage3_unit1_conv2 (Conv2D)     (None, 16, 40, 256)  589824      zero_padding2d_12[0][0]          
__________________________________________________________________________________________________
stage3_unit1_sc (Conv2D)        (None, 16, 40, 256)  32768       stage3_unit1_relu1[0][0]         
__________________________________________________________________________________________________
add_5 (Add)                     (None, 16, 40, 256)  0           stage3_unit1_conv2[0][0]         
                                                                 stage3_unit1_sc[0][0]            
__________________________________________________________________________________________________
stage3_unit2_bn1 (BatchNormaliz (None, 16, 40, 256)  1024        add_5[0][0]                      
__________________________________________________________________________________________________
stage3_unit2_relu1 (Activation) (None, 16, 40, 256)  0           stage3_unit2_bn1[0][0]           
__________________________________________________________________________________________________
zero_padding2d_13 (ZeroPadding2 (None, 18, 42, 256)  0           stage3_unit2_relu1[0][0]         
__________________________________________________________________________________________________
stage3_unit2_conv1 (Conv2D)     (None, 16, 40, 256)  589824      zero_padding2d_13[0][0]          
__________________________________________________________________________________________________
stage3_unit2_bn2 (BatchNormaliz (None, 16, 40, 256)  1024        stage3_unit2_conv1[0][0]         
__________________________________________________________________________________________________
stage3_unit2_relu2 (Activation) (None, 16, 40, 256)  0           stage3_unit2_bn2[0][0]           
__________________________________________________________________________________________________
zero_padding2d_14 (ZeroPadding2 (None, 18, 42, 256)  0           stage3_unit2_relu2[0][0]         
__________________________________________________________________________________________________
stage3_unit2_conv2 (Conv2D)     (None, 16, 40, 256)  589824      zero_padding2d_14[0][0]          
__________________________________________________________________________________________________
add_6 (Add)                     (None, 16, 40, 256)  0           stage3_unit2_conv2[0][0]         
                                                                 add_5[0][0]                      
__________________________________________________________________________________________________
stage4_unit1_bn1 (BatchNormaliz (None, 16, 40, 256)  1024        add_6[0][0]                      
__________________________________________________________________________________________________
stage4_unit1_relu1 (Activation) (None, 16, 40, 256)  0           stage4_unit1_bn1[0][0]           
__________________________________________________________________________________________________
zero_padding2d_15 (ZeroPadding2 (None, 18, 42, 256)  0           stage4_unit1_relu1[0][0]         
__________________________________________________________________________________________________
stage4_unit1_conv1 (Conv2D)     (None, 8, 20, 512)   1179648     zero_padding2d_15[0][0]          
__________________________________________________________________________________________________
stage4_unit1_bn2 (BatchNormaliz (None, 8, 20, 512)   2048        stage4_unit1_conv1[0][0]         
__________________________________________________________________________________________________
stage4_unit1_relu2 (Activation) (None, 8, 20, 512)   0           stage4_unit1_bn2[0][0]           
__________________________________________________________________________________________________
zero_padding2d_16 (ZeroPadding2 (None, 10, 22, 512)  0           stage4_unit1_relu2[0][0]         
__________________________________________________________________________________________________
stage4_unit1_conv2 (Conv2D)     (None, 8, 20, 512)   2359296     zero_padding2d_16[0][0]          
__________________________________________________________________________________________________
stage4_unit1_sc (Conv2D)        (None, 8, 20, 512)   131072      stage4_unit1_relu1[0][0]         
__________________________________________________________________________________________________
add_7 (Add)                     (None, 8, 20, 512)   0           stage4_unit1_conv2[0][0]         
                                                                 stage4_unit1_sc[0][0]            
__________________________________________________________________________________________________
stage4_unit2_bn1 (BatchNormaliz (None, 8, 20, 512)   2048        add_7[0][0]                      
__________________________________________________________________________________________________
stage4_unit2_relu1 (Activation) (None, 8, 20, 512)   0           stage4_unit2_bn1[0][0]           
__________________________________________________________________________________________________
zero_padding2d_17 (ZeroPadding2 (None, 10, 22, 512)  0           stage4_unit2_relu1[0][0]         
__________________________________________________________________________________________________
stage4_unit2_conv1 (Conv2D)     (None, 8, 20, 512)   2359296     zero_padding2d_17[0][0]          
__________________________________________________________________________________________________
stage4_unit2_bn2 (BatchNormaliz (None, 8, 20, 512)   2048        stage4_unit2_conv1[0][0]         
__________________________________________________________________________________________________
stage4_unit2_relu2 (Activation) (None, 8, 20, 512)   0           stage4_unit2_bn2[0][0]           
__________________________________________________________________________________________________
zero_padding2d_18 (ZeroPadding2 (None, 10, 22, 512)  0           stage4_unit2_relu2[0][0]         
__________________________________________________________________________________________________
stage4_unit2_conv2 (Conv2D)     (None, 8, 20, 512)   2359296     zero_padding2d_18[0][0]          
__________________________________________________________________________________________________
add_8 (Add)                     (None, 8, 20, 512)   0           stage4_unit2_conv2[0][0]         
                                                                 add_7[0][0]                      
__________________________________________________________________________________________________
bn1 (BatchNormalization)        (None, 8, 20, 512)   2048        add_8[0][0]                      
__________________________________________________________________________________________________
relu1 (Activation)              (None, 8, 20, 512)   0           bn1[0][0]                        
__________________________________________________________________________________________________
decoder_stage0_conv1 (Conv2D)   (None, 8, 20, 128)   65536       relu1[0][0]                      
__________________________________________________________________________________________________
decoder_stage0_bn1 (BatchNormal (None, 8, 20, 128)   512         decoder_stage0_conv1[0][0]       
__________________________________________________________________________________________________
decoder_stage0_relu1 (Activatio (None, 8, 20, 128)   0           decoder_stage0_bn1[0][0]         
__________________________________________________________________________________________________
decoder_stage0_upsample2 (UpSam (None, 16, 40, 128)  0           decoder_stage0_relu1[0][0]       
__________________________________________________________________________________________________
decoder_stage0_conv2 (Conv2D)   (None, 16, 40, 128)  147456      decoder_stage0_upsample2[0][0]   
__________________________________________________________________________________________________
decoder_stage0_bn2 (BatchNormal (None, 16, 40, 128)  512         decoder_stage0_conv2[0][0]       
__________________________________________________________________________________________________
decoder_stage0_relu2 (Activatio (None, 16, 40, 128)  0           decoder_stage0_bn2[0][0]         
__________________________________________________________________________________________________
decoder_stage0_conv3 (Conv2D)   (None, 16, 40, 256)  32768       decoder_stage0_relu2[0][0]       
__________________________________________________________________________________________________
decoder_stage0_bn3 (BatchNormal (None, 16, 40, 256)  1024        decoder_stage0_conv3[0][0]       
__________________________________________________________________________________________________
decoder_stage0_relu3 (Activatio (None, 16, 40, 256)  0           decoder_stage0_bn3[0][0]         
__________________________________________________________________________________________________
add_9 (Add)                     (None, 16, 40, 256)  0           decoder_stage0_relu3[0][0]       
                                                                 stage4_unit1_relu1[0][0]         
__________________________________________________________________________________________________
decoder_stage1_conv1 (Conv2D)   (None, 16, 40, 64)   16384       add_9[0][0]                      
__________________________________________________________________________________________________
decoder_stage1_bn1 (BatchNormal (None, 16, 40, 64)   256         decoder_stage1_conv1[0][0]       
__________________________________________________________________________________________________
decoder_stage1_relu1 (Activatio (None, 16, 40, 64)   0           decoder_stage1_bn1[0][0]         
__________________________________________________________________________________________________
decoder_stage1_upsample2 (UpSam (None, 32, 80, 64)   0           decoder_stage1_relu1[0][0]       
__________________________________________________________________________________________________
decoder_stage1_conv2 (Conv2D)   (None, 32, 80, 64)   36864       decoder_stage1_upsample2[0][0]   
__________________________________________________________________________________________________
decoder_stage1_bn2 (BatchNormal (None, 32, 80, 64)   256         decoder_stage1_conv2[0][0]       
__________________________________________________________________________________________________
decoder_stage1_relu2 (Activatio (None, 32, 80, 64)   0           decoder_stage1_bn2[0][0]         
__________________________________________________________________________________________________
decoder_stage1_conv3 (Conv2D)   (None, 32, 80, 128)  8192        decoder_stage1_relu2[0][0]       
__________________________________________________________________________________________________
decoder_stage1_bn3 (BatchNormal (None, 32, 80, 128)  512         decoder_stage1_conv3[0][0]       
__________________________________________________________________________________________________
decoder_stage1_relu3 (Activatio (None, 32, 80, 128)  0           decoder_stage1_bn3[0][0]         
__________________________________________________________________________________________________
add_10 (Add)                    (None, 32, 80, 128)  0           decoder_stage1_relu3[0][0]       
                                                                 stage3_unit1_relu1[0][0]         
__________________________________________________________________________________________________
decoder_stage2_conv1 (Conv2D)   (None, 32, 80, 32)   4096        add_10[0][0]                     
__________________________________________________________________________________________________
decoder_stage2_bn1 (BatchNormal (None, 32, 80, 32)   128         decoder_stage2_conv1[0][0]       
__________________________________________________________________________________________________
decoder_stage2_relu1 (Activatio (None, 32, 80, 32)   0           decoder_stage2_bn1[0][0]         
__________________________________________________________________________________________________
decoder_stage2_upsample2 (UpSam (None, 64, 160, 32)  0           decoder_stage2_relu1[0][0]       
__________________________________________________________________________________________________
decoder_stage2_conv2 (Conv2D)   (None, 64, 160, 32)  9216        decoder_stage2_upsample2[0][0]   
__________________________________________________________________________________________________
decoder_stage2_bn2 (BatchNormal (None, 64, 160, 32)  128         decoder_stage2_conv2[0][0]       
__________________________________________________________________________________________________
decoder_stage2_relu2 (Activatio (None, 64, 160, 32)  0           decoder_stage2_bn2[0][0]         
__________________________________________________________________________________________________
decoder_stage2_conv3 (Conv2D)   (None, 64, 160, 64)  2048        decoder_stage2_relu2[0][0]       
__________________________________________________________________________________________________
decoder_stage2_bn3 (BatchNormal (None, 64, 160, 64)  256         decoder_stage2_conv3[0][0]       
__________________________________________________________________________________________________
decoder_stage2_relu3 (Activatio (None, 64, 160, 64)  0           decoder_stage2_bn3[0][0]         
__________________________________________________________________________________________________
add_11 (Add)                    (None, 64, 160, 64)  0           decoder_stage2_relu3[0][0]       
                                                                 stage2_unit1_relu1[0][0]         
__________________________________________________________________________________________________
decoder_stage3_conv1 (Conv2D)   (None, 64, 160, 16)  1024        add_11[0][0]                     
__________________________________________________________________________________________________
decoder_stage3_bn1 (BatchNormal (None, 64, 160, 16)  64          decoder_stage3_conv1[0][0]       
__________________________________________________________________________________________________
decoder_stage3_relu1 (Activatio (None, 64, 160, 16)  0           decoder_stage3_bn1[0][0]         
__________________________________________________________________________________________________
decoder_stage3_upsample2 (UpSam (None, 128, 320, 16) 0           decoder_stage3_relu1[0][0]       
__________________________________________________________________________________________________
decoder_stage3_conv2 (Conv2D)   (None, 128, 320, 16) 2304        decoder_stage3_upsample2[0][0]   
__________________________________________________________________________________________________
decoder_stage3_bn2 (BatchNormal (None, 128, 320, 16) 64          decoder_stage3_conv2[0][0]       
__________________________________________________________________________________________________
decoder_stage3_relu2 (Activatio (None, 128, 320, 16) 0           decoder_stage3_bn2[0][0]         
__________________________________________________________________________________________________
decoder_stage3_conv3 (Conv2D)   (None, 128, 320, 64) 1024        decoder_stage3_relu2[0][0]       
__________________________________________________________________________________________________
decoder_stage3_bn3 (BatchNormal (None, 128, 320, 64) 256         decoder_stage3_conv3[0][0]       
__________________________________________________________________________________________________
decoder_stage3_relu3 (Activatio (None, 128, 320, 64) 0           decoder_stage3_bn3[0][0]         
__________________________________________________________________________________________________
add_12 (Add)                    (None, 128, 320, 64) 0           decoder_stage3_relu3[0][0]       
                                                                 relu0[0][0]                      
__________________________________________________________________________________________________
decoder_stage4_conv1 (Conv2D)   (None, 128, 320, 16) 1024        add_12[0][0]                     
__________________________________________________________________________________________________
decoder_stage4_bn1 (BatchNormal (None, 128, 320, 16) 64          decoder_stage4_conv1[0][0]       
__________________________________________________________________________________________________
decoder_stage4_relu1 (Activatio (None, 128, 320, 16) 0           decoder_stage4_bn1[0][0]         
__________________________________________________________________________________________________
decoder_stage4_upsample2 (UpSam (None, 256, 640, 16) 0           decoder_stage4_relu1[0][0]       
__________________________________________________________________________________________________
decoder_stage4_conv2 (Conv2D)   (None, 256, 640, 16) 2304        decoder_stage4_upsample2[0][0]   
__________________________________________________________________________________________________
decoder_stage4_bn2 (BatchNormal (None, 256, 640, 16) 64          decoder_stage4_conv2[0][0]       
__________________________________________________________________________________________________
decoder_stage4_relu2 (Activatio (None, 256, 640, 16) 0           decoder_stage4_bn2[0][0]         
__________________________________________________________________________________________________
decoder_stage4_conv3 (Conv2D)   (None, 256, 640, 16) 256         decoder_stage4_relu2[0][0]       
__________________________________________________________________________________________________
decoder_stage4_bn3 (BatchNormal (None, 256, 640, 16) 64          decoder_stage4_conv3[0][0]       
__________________________________________________________________________________________________
decoder_stage4_relu3 (Activatio (None, 256, 640, 16) 0           decoder_stage4_bn3[0][0]         
__________________________________________________________________________________________________
final_conv (Conv2D)             (None, 256, 640, 3)  435         decoder_stage4_relu3[0][0]       
__________________________________________________________________________________________________
softmax (Activation)            (None, 256, 640, 3)  0           final_conv[0][0]                 
==================================================================================================
Total params: 11,521,980
Trainable params: 11,511,958
Non-trainable params: 10,022
__________________________________________________________________________________________________
Optimizer: <keras.optimizers.Adam object at 0x7fe142d6d668>, learning rate: 0.0001, loss: [<function dice_fp_penalty_loss at 0x7fe289544d90>], metrics: ['categorical_accuracy']
…
