…
Images dtype: (336, 624, 3)
CycleGAN images dtype: (336, 624, 3)
Labels dtype: (336, 624)

Train:test split = 0.8:0.2

Training images count: 32106
Training labels count: 32106

Testing images count: 8027
Testing labels count: 8027

DOING CYCLEGAN AUGMENTATION
Model summary:
__________________________________________________________________________________________________
Layer (type)                    Output Shape         Param #     Connected to                     
==================================================================================================
input (InputLayer)              (None, 336, 624, 3)  0                                            
__________________________________________________________________________________________________
zero_padding2d_1 (ZeroPadding2D (None, 342, 630, 3)  0           input[0][0]                      
__________________________________________________________________________________________________
conv2d_1 (Conv2D)               (None, 168, 312, 64) 9408        zero_padding2d_1[0][0]           
__________________________________________________________________________________________________
batch_normalization_1 (BatchNor (None, 168, 312, 64) 256         conv2d_1[0][0]                   
__________________________________________________________________________________________________
activation_1 (Activation)       (None, 168, 312, 64) 0           batch_normalization_1[0][0]      
__________________________________________________________________________________________________
zero_padding2d_2 (ZeroPadding2D (None, 170, 314, 64) 0           activation_1[0][0]               
__________________________________________________________________________________________________
max_pooling2d_1 (MaxPooling2D)  (None, 84, 156, 64)  0           zero_padding2d_2[0][0]           
__________________________________________________________________________________________________
conv2d_2 (Conv2D)               (None, 84, 156, 128) 8192        max_pooling2d_1[0][0]            
__________________________________________________________________________________________________
batch_normalization_2 (BatchNor (None, 84, 156, 128) 512         conv2d_2[0][0]                   
__________________________________________________________________________________________________
activation_2 (Activation)       (None, 84, 156, 128) 0           batch_normalization_2[0][0]      
__________________________________________________________________________________________________
zero_padding2d_3 (ZeroPadding2D (None, 86, 158, 128) 0           activation_2[0][0]               
__________________________________________________________________________________________________
slice_1 (Slice)                 (None, 86, 158, 4)   0           zero_padding2d_3[0][0]           
__________________________________________________________________________________________________
slice_2 (Slice)                 (None, 86, 158, 4)   0           zero_padding2d_3[0][0]           
__________________________________________________________________________________________________
slice_3 (Slice)                 (None, 86, 158, 4)   0           zero_padding2d_3[0][0]           
__________________________________________________________________________________________________
slice_4 (Slice)                 (None, 86, 158, 4)   0           zero_padding2d_3[0][0]           
__________________________________________________________________________________________________
slice_5 (Slice)                 (None, 86, 158, 4)   0           zero_padding2d_3[0][0]           
__________________________________________________________________________________________________
slice_6 (Slice)                 (None, 86, 158, 4)   0           zero_padding2d_3[0][0]           
__________________________________________________________________________________________________
slice_7 (Slice)                 (None, 86, 158, 4)   0           zero_padding2d_3[0][0]           
__________________________________________________________________________________________________
slice_8 (Slice)                 (None, 86, 158, 4)   0           zero_padding2d_3[0][0]           
__________________________________________________________________________________________________
slice_9 (Slice)                 (None, 86, 158, 4)   0           zero_padding2d_3[0][0]           
__________________________________________________________________________________________________
slice_10 (Slice)                (None, 86, 158, 4)   0           zero_padding2d_3[0][0]           
__________________________________________________________________________________________________
slice_11 (Slice)                (None, 86, 158, 4)   0           zero_padding2d_3[0][0]           
__________________________________________________________________________________________________
slice_12 (Slice)                (None, 86, 158, 4)   0           zero_padding2d_3[0][0]           
__________________________________________________________________________________________________
slice_13 (Slice)                (None, 86, 158, 4)   0           zero_padding2d_3[0][0]           
__________________________________________________________________________________________________
slice_14 (Slice)                (None, 86, 158, 4)   0           zero_padding2d_3[0][0]           
__________________________________________________________________________________________________
slice_15 (Slice)                (None, 86, 158, 4)   0           zero_padding2d_3[0][0]           
__________________________________________________________________________________________________
slice_16 (Slice)                (None, 86, 158, 4)   0           zero_padding2d_3[0][0]           
__________________________________________________________________________________________________
slice_17 (Slice)                (None, 86, 158, 4)   0           zero_padding2d_3[0][0]           
__________________________________________________________________________________________________
slice_18 (Slice)                (None, 86, 158, 4)   0           zero_padding2d_3[0][0]           
__________________________________________________________________________________________________
slice_19 (Slice)                (None, 86, 158, 4)   0           zero_padding2d_3[0][0]           
__________________________________________________________________________________________________
slice_20 (Slice)                (None, 86, 158, 4)   0           zero_padding2d_3[0][0]           
__________________________________________________________________________________________________
slice_21 (Slice)                (None, 86, 158, 4)   0           zero_padding2d_3[0][0]           
__________________________________________________________________________________________________
slice_22 (Slice)                (None, 86, 158, 4)   0           zero_padding2d_3[0][0]           
__________________________________________________________________________________________________
slice_23 (Slice)                (None, 86, 158, 4)   0           zero_padding2d_3[0][0]           
__________________________________________________________________________________________________
slice_24 (Slice)                (None, 86, 158, 4)   0           zero_padding2d_3[0][0]           
__________________________________________________________________________________________________
slice_25 (Slice)                (None, 86, 158, 4)   0           zero_padding2d_3[0][0]           
__________________________________________________________________________________________________
slice_26 (Slice)                (None, 86, 158, 4)   0           zero_padding2d_3[0][0]           
__________________________________________________________________________________________________
slice_27 (Slice)                (None, 86, 158, 4)   0           zero_padding2d_3[0][0]           
__________________________________________________________________________________________________
slice_28 (Slice)                (None, 86, 158, 4)   0           zero_padding2d_3[0][0]           
__________________________________________________________________________________________________
slice_29 (Slice)                (None, 86, 158, 4)   0           zero_padding2d_3[0][0]           
__________________________________________________________________________________________________
slice_30 (Slice)                (None, 86, 158, 4)   0           zero_padding2d_3[0][0]           
__________________________________________________________________________________________________
slice_31 (Slice)                (None, 86, 158, 4)   0           zero_padding2d_3[0][0]           
__________________________________________________________________________________________________
slice_32 (Slice)                (None, 86, 158, 4)   0           zero_padding2d_3[0][0]           
__________________________________________________________________________________________________
conv2d_3 (Conv2D)               (None, 84, 156, 4)   144         slice_1[0][0]                    
__________________________________________________________________________________________________
conv2d_4 (Conv2D)               (None, 84, 156, 4)   144         slice_2[0][0]                    
__________________________________________________________________________________________________
conv2d_5 (Conv2D)               (None, 84, 156, 4)   144         slice_3[0][0]                    
__________________________________________________________________________________________________
conv2d_6 (Conv2D)               (None, 84, 156, 4)   144         slice_4[0][0]                    
__________________________________________________________________________________________________
conv2d_7 (Conv2D)               (None, 84, 156, 4)   144         slice_5[0][0]                    
__________________________________________________________________________________________________
conv2d_8 (Conv2D)               (None, 84, 156, 4)   144         slice_6[0][0]                    
__________________________________________________________________________________________________
conv2d_9 (Conv2D)               (None, 84, 156, 4)   144         slice_7[0][0]                    
__________________________________________________________________________________________________
conv2d_10 (Conv2D)              (None, 84, 156, 4)   144         slice_8[0][0]                    
__________________________________________________________________________________________________
conv2d_11 (Conv2D)              (None, 84, 156, 4)   144         slice_9[0][0]                    
__________________________________________________________________________________________________
conv2d_12 (Conv2D)              (None, 84, 156, 4)   144         slice_10[0][0]                   
__________________________________________________________________________________________________
conv2d_13 (Conv2D)              (None, 84, 156, 4)   144         slice_11[0][0]                   
__________________________________________________________________________________________________
conv2d_14 (Conv2D)              (None, 84, 156, 4)   144         slice_12[0][0]                   
__________________________________________________________________________________________________
conv2d_15 (Conv2D)              (None, 84, 156, 4)   144         slice_13[0][0]                   
__________________________________________________________________________________________________
conv2d_16 (Conv2D)              (None, 84, 156, 4)   144         slice_14[0][0]                   
__________________________________________________________________________________________________
conv2d_17 (Conv2D)              (None, 84, 156, 4)   144         slice_15[0][0]                   
__________________________________________________________________________________________________
conv2d_18 (Conv2D)              (None, 84, 156, 4)   144         slice_16[0][0]                   
__________________________________________________________________________________________________
conv2d_19 (Conv2D)              (None, 84, 156, 4)   144         slice_17[0][0]                   
__________________________________________________________________________________________________
conv2d_20 (Conv2D)              (None, 84, 156, 4)   144         slice_18[0][0]                   
__________________________________________________________________________________________________
conv2d_21 (Conv2D)              (None, 84, 156, 4)   144         slice_19[0][0]                   
__________________________________________________________________________________________________
conv2d_22 (Conv2D)              (None, 84, 156, 4)   144         slice_20[0][0]                   
__________________________________________________________________________________________________
conv2d_23 (Conv2D)              (None, 84, 156, 4)   144         slice_21[0][0]                   
__________________________________________________________________________________________________
conv2d_24 (Conv2D)              (None, 84, 156, 4)   144         slice_22[0][0]                   
__________________________________________________________________________________________________
conv2d_25 (Conv2D)              (None, 84, 156, 4)   144         slice_23[0][0]                   
__________________________________________________________________________________________________
conv2d_26 (Conv2D)              (None, 84, 156, 4)   144         slice_24[0][0]                   
__________________________________________________________________________________________________
conv2d_27 (Conv2D)              (None, 84, 156, 4)   144         slice_25[0][0]                   
__________________________________________________________________________________________________
conv2d_28 (Conv2D)              (None, 84, 156, 4)   144         slice_26[0][0]                   
__________________________________________________________________________________________________
conv2d_29 (Conv2D)              (None, 84, 156, 4)   144         slice_27[0][0]                   
__________________________________________________________________________________________________
conv2d_30 (Conv2D)              (None, 84, 156, 4)   144         slice_28[0][0]                   
__________________________________________________________________________________________________
conv2d_31 (Conv2D)              (None, 84, 156, 4)   144         slice_29[0][0]                   
__________________________________________________________________________________________________
conv2d_32 (Conv2D)              (None, 84, 156, 4)   144         slice_30[0][0]                   
__________________________________________________________________________________________________
conv2d_33 (Conv2D)              (None, 84, 156, 4)   144         slice_31[0][0]                   
__________________________________________________________________________________________________
conv2d_34 (Conv2D)              (None, 84, 156, 4)   144         slice_32[0][0]                   
__________________________________________________________________________________________________
concatenate_1 (Concatenate)     (None, 84, 156, 128) 0           conv2d_3[0][0]                   
                                                                 conv2d_4[0][0]                   
                                                                 conv2d_5[0][0]                   
                                                                 conv2d_6[0][0]                   
                                                                 conv2d_7[0][0]                   
…
                                                                 conv2d_30[0][0]                  
                                                                 conv2d_31[0][0]                  
                                                                 conv2d_32[0][0]                  
                                                                 conv2d_33[0][0]                  
                                                                 conv2d_34[0][0]                  
__________________________________________________________________________________________________
batch_normalization_3 (BatchNor (None, 84, 156, 128) 512         concatenate_1[0][0]              
__________________________________________________________________________________________________
activation_3 (Activation)       (None, 84, 156, 128) 0           batch_normalization_3[0][0]      
__________________________________________________________________________________________________
conv2d_35 (Conv2D)              (None, 84, 156, 256) 32768       activation_3[0][0]               
__________________________________________________________________________________________________
batch_normalization_4 (BatchNor (None, 84, 156, 256) 1024        conv2d_35[0][0]                  
__________________________________________________________________________________________________
lambda_1 (Lambda)               (None, 1, 1, 256)    0           batch_normalization_4[0][0]      
__________________________________________________________________________________________________
conv2d_37 (Conv2D)              (None, 1, 1, 16)     4112        lambda_1[0][0]                   
__________________________________________________________________________________________________
activation_4 (Activation)       (None, 1, 1, 16)     0           conv2d_37[0][0]                  
__________________________________________________________________________________________________
conv2d_38 (Conv2D)              (None, 1, 1, 256)    4352        activation_4[0][0]               
__________________________________________________________________________________________________
activation_5 (Activation)       (None, 1, 1, 256)    0           conv2d_38[0][0]                  
__________________________________________________________________________________________________
conv2d_36 (Conv2D)              (None, 84, 156, 256) 16384       max_pooling2d_1[0][0]            
__________________________________________________________________________________________________
multiply_1 (Multiply)           (None, 84, 156, 256) 0           batch_normalization_4[0][0]      
                                                                 activation_5[0][0]               
__________________________________________________________________________________________________
batch_normalization_5 (BatchNor (None, 84, 156, 256) 1024        conv2d_36[0][0]                  
__________________________________________________________________________________________________
add_1 (Add)                     (None, 84, 156, 256) 0           multiply_1[0][0]                 
                                                                 batch_normalization_5[0][0]      
__________________________________________________________________________________________________
activation_6 (Activation)       (None, 84, 156, 256) 0           add_1[0][0]                      
__________________________________________________________________________________________________
conv2d_39 (Conv2D)              (None, 84, 156, 128) 32768       activation_6[0][0]               
__________________________________________________________________________________________________
batch_normalization_6 (BatchNor (None, 84, 156, 128) 512         conv2d_39[0][0]                  
__________________________________________________________________________________________________
activation_7 (Activation)       (None, 84, 156, 128) 0           batch_normalization_6[0][0]      
__________________________________________________________________________________________________
zero_padding2d_4 (ZeroPadding2D (None, 86, 158, 128) 0           activation_7[0][0]               
__________________________________________________________________________________________________
slice_33 (Slice)                (None, 86, 158, 4)   0           zero_padding2d_4[0][0]           
__________________________________________________________________________________________________
slice_34 (Slice)                (None, 86, 158, 4)   0           zero_padding2d_4[0][0]           
__________________________________________________________________________________________________
slice_35 (Slice)                (None, 86, 158, 4)   0           zero_padding2d_4[0][0]           
__________________________________________________________________________________________________
slice_36 (Slice)                (None, 86, 158, 4)   0           zero_padding2d_4[0][0]           
__________________________________________________________________________________________________
slice_37 (Slice)                (None, 86, 158, 4)   0           zero_padding2d_4[0][0]           
__________________________________________________________________________________________________
slice_38 (Slice)                (None, 86, 158, 4)   0           zero_padding2d_4[0][0]           
__________________________________________________________________________________________________
slice_39 (Slice)                (None, 86, 158, 4)   0           zero_padding2d_4[0][0]           
__________________________________________________________________________________________________
slice_40 (Slice)                (None, 86, 158, 4)   0           zero_padding2d_4[0][0]           
__________________________________________________________________________________________________
slice_41 (Slice)                (None, 86, 158, 4)   0           zero_padding2d_4[0][0]           
__________________________________________________________________________________________________
slice_42 (Slice)                (None, 86, 158, 4)   0           zero_padding2d_4[0][0]           
__________________________________________________________________________________________________
slice_43 (Slice)                (None, 86, 158, 4)   0           zero_padding2d_4[0][0]           
__________________________________________________________________________________________________
slice_44 (Slice)                (None, 86, 158, 4)   0           zero_padding2d_4[0][0]           
__________________________________________________________________________________________________
slice_45 (Slice)                (None, 86, 158, 4)   0           zero_padding2d_4[0][0]           
__________________________________________________________________________________________________
slice_46 (Slice)                (None, 86, 158, 4)   0           zero_padding2d_4[0][0]           
__________________________________________________________________________________________________
slice_47 (Slice)                (None, 86, 158, 4)   0           zero_padding2d_4[0][0]           
__________________________________________________________________________________________________
slice_48 (Slice)                (None, 86, 158, 4)   0           zero_padding2d_4[0][0]           
__________________________________________________________________________________________________
slice_49 (Slice)                (None, 86, 158, 4)   0           zero_padding2d_4[0][0]           
__________________________________________________________________________________________________
slice_50 (Slice)                (None, 86, 158, 4)   0           zero_padding2d_4[0][0]           
__________________________________________________________________________________________________
slice_51 (Slice)                (None, 86, 158, 4)   0           zero_padding2d_4[0][0]           
__________________________________________________________________________________________________
slice_52 (Slice)                (None, 86, 158, 4)   0           zero_padding2d_4[0][0]           
__________________________________________________________________________________________________
slice_53 (Slice)                (None, 86, 158, 4)   0           zero_padding2d_4[0][0]           
__________________________________________________________________________________________________
slice_54 (Slice)                (None, 86, 158, 4)   0           zero_padding2d_4[0][0]           
__________________________________________________________________________________________________
slice_55 (Slice)                (None, 86, 158, 4)   0           zero_padding2d_4[0][0]           
__________________________________________________________________________________________________
slice_56 (Slice)                (None, 86, 158, 4)   0           zero_padding2d_4[0][0]           
__________________________________________________________________________________________________
slice_57 (Slice)                (None, 86, 158, 4)   0           zero_padding2d_4[0][0]           
__________________________________________________________________________________________________
slice_58 (Slice)                (None, 86, 158, 4)   0           zero_padding2d_4[0][0]           
__________________________________________________________________________________________________
slice_59 (Slice)                (None, 86, 158, 4)   0           zero_padding2d_4[0][0]           
__________________________________________________________________________________________________
slice_60 (Slice)                (None, 86, 158, 4)   0           zero_padding2d_4[0][0]           
__________________________________________________________________________________________________
slice_61 (Slice)                (None, 86, 158, 4)   0           zero_padding2d_4[0][0]           
__________________________________________________________________________________________________
slice_62 (Slice)                (None, 86, 158, 4)   0           zero_padding2d_4[0][0]           
__________________________________________________________________________________________________
slice_63 (Slice)                (None, 86, 158, 4)   0           zero_padding2d_4[0][0]           
__________________________________________________________________________________________________
slice_64 (Slice)                (None, 86, 158, 4)   0           zero_padding2d_4[0][0]           
__________________________________________________________________________________________________
conv2d_40 (Conv2D)              (None, 84, 156, 4)   144         slice_33[0][0]                   
__________________________________________________________________________________________________
conv2d_41 (Conv2D)              (None, 84, 156, 4)   144         slice_34[0][0]                   
__________________________________________________________________________________________________
conv2d_42 (Conv2D)              (None, 84, 156, 4)   144         slice_35[0][0]                   
__________________________________________________________________________________________________
conv2d_43 (Conv2D)              (None, 84, 156, 4)   144         slice_36[0][0]                   
__________________________________________________________________________________________________
conv2d_44 (Conv2D)              (None, 84, 156, 4)   144         slice_37[0][0]                   
__________________________________________________________________________________________________
conv2d_45 (Conv2D)              (None, 84, 156, 4)   144         slice_38[0][0]                   
__________________________________________________________________________________________________
conv2d_46 (Conv2D)              (None, 84, 156, 4)   144         slice_39[0][0]                   
__________________________________________________________________________________________________
conv2d_47 (Conv2D)              (None, 84, 156, 4)   144         slice_40[0][0]                   
__________________________________________________________________________________________________
conv2d_48 (Conv2D)              (None, 84, 156, 4)   144         slice_41[0][0]                   
__________________________________________________________________________________________________
conv2d_49 (Conv2D)              (None, 84, 156, 4)   144         slice_42[0][0]                   
__________________________________________________________________________________________________
conv2d_50 (Conv2D)              (None, 84, 156, 4)   144         slice_43[0][0]                   
__________________________________________________________________________________________________
conv2d_51 (Conv2D)              (None, 84, 156, 4)   144         slice_44[0][0]                   
__________________________________________________________________________________________________
conv2d_52 (Conv2D)              (None, 84, 156, 4)   144         slice_45[0][0]                   
__________________________________________________________________________________________________
conv2d_53 (Conv2D)              (None, 84, 156, 4)   144         slice_46[0][0]                   
__________________________________________________________________________________________________
conv2d_54 (Conv2D)              (None, 84, 156, 4)   144         slice_47[0][0]                   
__________________________________________________________________________________________________
conv2d_55 (Conv2D)              (None, 84, 156, 4)   144         slice_48[0][0]                   
__________________________________________________________________________________________________
conv2d_56 (Conv2D)              (None, 84, 156, 4)   144         slice_49[0][0]                   
__________________________________________________________________________________________________
conv2d_57 (Conv2D)              (None, 84, 156, 4)   144         slice_50[0][0]                   
__________________________________________________________________________________________________
conv2d_58 (Conv2D)              (None, 84, 156, 4)   144         slice_51[0][0]                   
__________________________________________________________________________________________________
conv2d_59 (Conv2D)              (None, 84, 156, 4)   144         slice_52[0][0]                   
__________________________________________________________________________________________________
conv2d_60 (Conv2D)              (None, 84, 156, 4)   144         slice_53[0][0]                   
__________________________________________________________________________________________________
conv2d_61 (Conv2D)              (None, 84, 156, 4)   144         slice_54[0][0]                   
__________________________________________________________________________________________________
conv2d_62 (Conv2D)              (None, 84, 156, 4)   144         slice_55[0][0]                   
__________________________________________________________________________________________________
conv2d_63 (Conv2D)              (None, 84, 156, 4)   144         slice_56[0][0]                   
__________________________________________________________________________________________________
conv2d_64 (Conv2D)              (None, 84, 156, 4)   144         slice_57[0][0]                   
__________________________________________________________________________________________________
conv2d_65 (Conv2D)              (None, 84, 156, 4)   144         slice_58[0][0]                   
__________________________________________________________________________________________________
conv2d_66 (Conv2D)              (None, 84, 156, 4)   144         slice_59[0][0]                   
__________________________________________________________________________________________________
conv2d_67 (Conv2D)              (None, 84, 156, 4)   144         slice_60[0][0]                   
__________________________________________________________________________________________________
conv2d_68 (Conv2D)              (None, 84, 156, 4)   144         slice_61[0][0]                   
__________________________________________________________________________________________________
conv2d_69 (Conv2D)              (None, 84, 156, 4)   144         slice_62[0][0]                   
__________________________________________________________________________________________________
conv2d_70 (Conv2D)              (None, 84, 156, 4)   144         slice_63[0][0]                   
__________________________________________________________________________________________________
conv2d_71 (Conv2D)              (None, 84, 156, 4)   144         slice_64[0][0]                   
__________________________________________________________________________________________________
concatenate_2 (Concatenate)     (None, 84, 156, 128) 0           conv2d_40[0][0]                  
                                                                 conv2d_41[0][0]                  
                                                                 conv2d_42[0][0]                  
                                                                 conv2d_43[0][0]                  
                                                                 conv2d_44[0][0]                  
…
                                                                 conv2d_67[0][0]                  
                                                                 conv2d_68[0][0]                  
                                                                 conv2d_69[0][0]                  
                                                                 conv2d_70[0][0]                  
                                                                 conv2d_71[0][0]                  
__________________________________________________________________________________________________
batch_normalization_7 (BatchNor (None, 84, 156, 128) 512         concatenate_2[0][0]              
__________________________________________________________________________________________________
activation_8 (Activation)       (None, 84, 156, 128) 0           batch_normalization_7[0][0]      
__________________________________________________________________________________________________
conv2d_72 (Conv2D)              (None, 84, 156, 256) 32768       activation_8[0][0]               
__________________________________________________________________________________________________
batch_normalization_8 (BatchNor (None, 84, 156, 256) 1024        conv2d_72[0][0]                  
__________________________________________________________________________________________________
lambda_2 (Lambda)               (None, 1, 1, 256)    0           batch_normalization_8[0][0]      
__________________________________________________________________________________________________
conv2d_73 (Conv2D)              (None, 1, 1, 16)     4112        lambda_2[0][0]                   
__________________________________________________________________________________________________
activation_9 (Activation)       (None, 1, 1, 16)     0           conv2d_73[0][0]                  
__________________________________________________________________________________________________
conv2d_74 (Conv2D)              (None, 1, 1, 256)    4352        activation_9[0][0]               
__________________________________________________________________________________________________
activation_10 (Activation)      (None, 1, 1, 256)    0           conv2d_74[0][0]                  
__________________________________________________________________________________________________
multiply_2 (Multiply)           (None, 84, 156, 256) 0           batch_normalization_8[0][0]      
                                                                 activation_10[0][0]              
__________________________________________________________________________________________________
add_2 (Add)                     (None, 84, 156, 256) 0           multiply_2[0][0]                 
                                                                 activation_6[0][0]               
__________________________________________________________________________________________________
activation_11 (Activation)      (None, 84, 156, 256) 0           add_2[0][0]                      
__________________________________________________________________________________________________
conv2d_75 (Conv2D)              (None, 84, 156, 128) 32768       activation_11[0][0]              
__________________________________________________________________________________________________
batch_normalization_9 (BatchNor (None, 84, 156, 128) 512         conv2d_75[0][0]                  
__________________________________________________________________________________________________
activation_12 (Activation)      (None, 84, 156, 128) 0           batch_normalization_9[0][0]      
__________________________________________________________________________________________________
zero_padding2d_5 (ZeroPadding2D (None, 86, 158, 128) 0           activation_12[0][0]              
__________________________________________________________________________________________________
slice_65 (Slice)                (None, 86, 158, 4)   0           zero_padding2d_5[0][0]           
__________________________________________________________________________________________________
slice_66 (Slice)                (None, 86, 158, 4)   0           zero_padding2d_5[0][0]           
__________________________________________________________________________________________________
slice_67 (Slice)                (None, 86, 158, 4)   0           zero_padding2d_5[0][0]           
__________________________________________________________________________________________________
slice_68 (Slice)                (None, 86, 158, 4)   0           zero_padding2d_5[0][0]           
__________________________________________________________________________________________________
slice_69 (Slice)                (None, 86, 158, 4)   0           zero_padding2d_5[0][0]           
__________________________________________________________________________________________________
slice_70 (Slice)                (None, 86, 158, 4)   0           zero_padding2d_5[0][0]           
__________________________________________________________________________________________________
slice_71 (Slice)                (None, 86, 158, 4)   0           zero_padding2d_5[0][0]           
__________________________________________________________________________________________________
slice_72 (Slice)                (None, 86, 158, 4)   0           zero_padding2d_5[0][0]           
__________________________________________________________________________________________________
slice_73 (Slice)                (None, 86, 158, 4)   0           zero_padding2d_5[0][0]           
__________________________________________________________________________________________________
slice_74 (Slice)                (None, 86, 158, 4)   0           zero_padding2d_5[0][0]           
__________________________________________________________________________________________________
slice_75 (Slice)                (None, 86, 158, 4)   0           zero_padding2d_5[0][0]           
__________________________________________________________________________________________________
slice_76 (Slice)                (None, 86, 158, 4)   0           zero_padding2d_5[0][0]           
__________________________________________________________________________________________________
slice_77 (Slice)                (None, 86, 158, 4)   0           zero_padding2d_5[0][0]           
__________________________________________________________________________________________________
slice_78 (Slice)                (None, 86, 158, 4)   0           zero_padding2d_5[0][0]           
__________________________________________________________________________________________________
slice_79 (Slice)                (None, 86, 158, 4)   0           zero_padding2d_5[0][0]           
__________________________________________________________________________________________________
slice_80 (Slice)                (None, 86, 158, 4)   0           zero_padding2d_5[0][0]           
__________________________________________________________________________________________________
slice_81 (Slice)                (None, 86, 158, 4)   0           zero_padding2d_5[0][0]           
__________________________________________________________________________________________________
slice_82 (Slice)                (None, 86, 158, 4)   0           zero_padding2d_5[0][0]           
__________________________________________________________________________________________________
slice_83 (Slice)                (None, 86, 158, 4)   0           zero_padding2d_5[0][0]           
__________________________________________________________________________________________________
slice_84 (Slice)                (None, 86, 158, 4)   0           zero_padding2d_5[0][0]           
__________________________________________________________________________________________________
slice_85 (Slice)                (None, 86, 158, 4)   0           zero_padding2d_5[0][0]           
__________________________________________________________________________________________________
slice_86 (Slice)                (None, 86, 158, 4)   0           zero_padding2d_5[0][0]           
__________________________________________________________________________________________________
slice_87 (Slice)                (None, 86, 158, 4)   0           zero_padding2d_5[0][0]           
__________________________________________________________________________________________________
slice_88 (Slice)                (None, 86, 158, 4)   0           zero_padding2d_5[0][0]           
__________________________________________________________________________________________________
slice_89 (Slice)                (None, 86, 158, 4)   0           zero_padding2d_5[0][0]           
__________________________________________________________________________________________________
slice_90 (Slice)                (None, 86, 158, 4)   0           zero_padding2d_5[0][0]           
__________________________________________________________________________________________________
slice_91 (Slice)                (None, 86, 158, 4)   0           zero_padding2d_5[0][0]           
__________________________________________________________________________________________________
slice_92 (Slice)                (None, 86, 158, 4)   0           zero_padding2d_5[0][0]           
__________________________________________________________________________________________________
slice_93 (Slice)                (None, 86, 158, 4)   0           zero_padding2d_5[0][0]           
__________________________________________________________________________________________________
slice_94 (Slice)                (None, 86, 158, 4)   0           zero_padding2d_5[0][0]           
__________________________________________________________________________________________________
slice_95 (Slice)                (None, 86, 158, 4)   0           zero_padding2d_5[0][0]           
__________________________________________________________________________________________________
slice_96 (Slice)                (None, 86, 158, 4)   0           zero_padding2d_5[0][0]           
__________________________________________________________________________________________________
conv2d_76 (Conv2D)              (None, 84, 156, 4)   144         slice_65[0][0]                   
__________________________________________________________________________________________________
conv2d_77 (Conv2D)              (None, 84, 156, 4)   144         slice_66[0][0]                   
__________________________________________________________________________________________________
conv2d_78 (Conv2D)              (None, 84, 156, 4)   144         slice_67[0][0]                   
__________________________________________________________________________________________________
conv2d_79 (Conv2D)              (None, 84, 156, 4)   144         slice_68[0][0]                   
__________________________________________________________________________________________________
conv2d_80 (Conv2D)              (None, 84, 156, 4)   144         slice_69[0][0]                   
__________________________________________________________________________________________________
conv2d_81 (Conv2D)              (None, 84, 156, 4)   144         slice_70[0][0]                   
__________________________________________________________________________________________________
conv2d_82 (Conv2D)              (None, 84, 156, 4)   144         slice_71[0][0]                   
__________________________________________________________________________________________________
conv2d_83 (Conv2D)              (None, 84, 156, 4)   144         slice_72[0][0]                   
__________________________________________________________________________________________________
conv2d_84 (Conv2D)              (None, 84, 156, 4)   144         slice_73[0][0]                   
__________________________________________________________________________________________________
conv2d_85 (Conv2D)              (None, 84, 156, 4)   144         slice_74[0][0]                   
__________________________________________________________________________________________________
conv2d_86 (Conv2D)              (None, 84, 156, 4)   144         slice_75[0][0]                   
__________________________________________________________________________________________________
conv2d_87 (Conv2D)              (None, 84, 156, 4)   144         slice_76[0][0]                   
__________________________________________________________________________________________________
conv2d_88 (Conv2D)              (None, 84, 156, 4)   144         slice_77[0][0]                   
__________________________________________________________________________________________________
conv2d_89 (Conv2D)              (None, 84, 156, 4)   144         slice_78[0][0]                   
__________________________________________________________________________________________________
conv2d_90 (Conv2D)              (None, 84, 156, 4)   144         slice_79[0][0]                   
__________________________________________________________________________________________________
conv2d_91 (Conv2D)              (None, 84, 156, 4)   144         slice_80[0][0]                   
__________________________________________________________________________________________________
conv2d_92 (Conv2D)              (None, 84, 156, 4)   144         slice_81[0][0]                   
__________________________________________________________________________________________________
conv2d_93 (Conv2D)              (None, 84, 156, 4)   144         slice_82[0][0]                   
__________________________________________________________________________________________________
conv2d_94 (Conv2D)              (None, 84, 156, 4)   144         slice_83[0][0]                   
__________________________________________________________________________________________________
conv2d_95 (Conv2D)              (None, 84, 156, 4)   144         slice_84[0][0]                   
__________________________________________________________________________________________________
conv2d_96 (Conv2D)              (None, 84, 156, 4)   144         slice_85[0][0]                   
__________________________________________________________________________________________________
conv2d_97 (Conv2D)              (None, 84, 156, 4)   144         slice_86[0][0]                   
__________________________________________________________________________________________________
conv2d_98 (Conv2D)              (None, 84, 156, 4)   144         slice_87[0][0]                   
__________________________________________________________________________________________________
conv2d_99 (Conv2D)              (None, 84, 156, 4)   144         slice_88[0][0]                   
__________________________________________________________________________________________________
conv2d_100 (Conv2D)             (None, 84, 156, 4)   144         slice_89[0][0]                   
__________________________________________________________________________________________________
conv2d_101 (Conv2D)             (None, 84, 156, 4)   144         slice_90[0][0]                   
__________________________________________________________________________________________________
conv2d_102 (Conv2D)             (None, 84, 156, 4)   144         slice_91[0][0]                   
__________________________________________________________________________________________________
conv2d_103 (Conv2D)             (None, 84, 156, 4)   144         slice_92[0][0]                   
__________________________________________________________________________________________________
conv2d_104 (Conv2D)             (None, 84, 156, 4)   144         slice_93[0][0]                   
__________________________________________________________________________________________________
conv2d_105 (Conv2D)             (None, 84, 156, 4)   144         slice_94[0][0]                   
__________________________________________________________________________________________________
conv2d_106 (Conv2D)             (None, 84, 156, 4)   144         slice_95[0][0]                   
__________________________________________________________________________________________________
conv2d_107 (Conv2D)             (None, 84, 156, 4)   144         slice_96[0][0]                   
__________________________________________________________________________________________________
concatenate_3 (Concatenate)     (None, 84, 156, 128) 0           conv2d_76[0][0]                  
                                                                 conv2d_77[0][0]                  
                                                                 conv2d_78[0][0]                  
                                                                 conv2d_79[0][0]                  
                                                                 conv2d_80[0][0]                  
…
                                                                 conv2d_103[0][0]                 
                                                                 conv2d_104[0][0]                 
                                                                 conv2d_105[0][0]                 
                                                                 conv2d_106[0][0]                 
                                                                 conv2d_107[0][0]                 
__________________________________________________________________________________________________
batch_normalization_10 (BatchNo (None, 84, 156, 128) 512         concatenate_3[0][0]              
__________________________________________________________________________________________________
activation_13 (Activation)      (None, 84, 156, 128) 0           batch_normalization_10[0][0]     
__________________________________________________________________________________________________
conv2d_108 (Conv2D)             (None, 84, 156, 256) 32768       activation_13[0][0]              
__________________________________________________________________________________________________
batch_normalization_11 (BatchNo (None, 84, 156, 256) 1024        conv2d_108[0][0]                 
__________________________________________________________________________________________________
lambda_3 (Lambda)               (None, 1, 1, 256)    0           batch_normalization_11[0][0]     
__________________________________________________________________________________________________
conv2d_109 (Conv2D)             (None, 1, 1, 16)     4112        lambda_3[0][0]                   
__________________________________________________________________________________________________
activation_14 (Activation)      (None, 1, 1, 16)     0           conv2d_109[0][0]                 
__________________________________________________________________________________________________
conv2d_110 (Conv2D)             (None, 1, 1, 256)    4352        activation_14[0][0]              
__________________________________________________________________________________________________
activation_15 (Activation)      (None, 1, 1, 256)    0           conv2d_110[0][0]                 
__________________________________________________________________________________________________
multiply_3 (Multiply)           (None, 84, 156, 256) 0           batch_normalization_11[0][0]     
                                                                 activation_15[0][0]              
__________________________________________________________________________________________________
add_3 (Add)                     (None, 84, 156, 256) 0           multiply_3[0][0]                 
                                                                 activation_11[0][0]              
__________________________________________________________________________________________________
activation_16 (Activation)      (None, 84, 156, 256) 0           add_3[0][0]                      
__________________________________________________________________________________________________
conv2d_111 (Conv2D)             (None, 84, 156, 256) 65536       activation_16[0][0]              
__________________________________________________________________________________________________
batch_normalization_12 (BatchNo (None, 84, 156, 256) 1024        conv2d_111[0][0]                 
__________________________________________________________________________________________________
activation_17 (Activation)      (None, 84, 156, 256) 0           batch_normalization_12[0][0]     
__________________________________________________________________________________________________
zero_padding2d_6 (ZeroPadding2D (None, 86, 158, 256) 0           activation_17[0][0]              
__________________________________________________________________________________________________
slice_97 (Slice)                (None, 86, 158, 8)   0           zero_padding2d_6[0][0]           
__________________________________________________________________________________________________
slice_98 (Slice)                (None, 86, 158, 8)   0           zero_padding2d_6[0][0]           
__________________________________________________________________________________________________
slice_99 (Slice)                (None, 86, 158, 8)   0           zero_padding2d_6[0][0]           
__________________________________________________________________________________________________
slice_100 (Slice)               (None, 86, 158, 8)   0           zero_padding2d_6[0][0]           
__________________________________________________________________________________________________
slice_101 (Slice)               (None, 86, 158, 8)   0           zero_padding2d_6[0][0]           
__________________________________________________________________________________________________
slice_102 (Slice)               (None, 86, 158, 8)   0           zero_padding2d_6[0][0]           
__________________________________________________________________________________________________
slice_103 (Slice)               (None, 86, 158, 8)   0           zero_padding2d_6[0][0]           
__________________________________________________________________________________________________
slice_104 (Slice)               (None, 86, 158, 8)   0           zero_padding2d_6[0][0]           
__________________________________________________________________________________________________
slice_105 (Slice)               (None, 86, 158, 8)   0           zero_padding2d_6[0][0]           
__________________________________________________________________________________________________
slice_106 (Slice)               (None, 86, 158, 8)   0           zero_padding2d_6[0][0]           
__________________________________________________________________________________________________
slice_107 (Slice)               (None, 86, 158, 8)   0           zero_padding2d_6[0][0]           
__________________________________________________________________________________________________
slice_108 (Slice)               (None, 86, 158, 8)   0           zero_padding2d_6[0][0]           
__________________________________________________________________________________________________
slice_109 (Slice)               (None, 86, 158, 8)   0           zero_padding2d_6[0][0]           
__________________________________________________________________________________________________
slice_110 (Slice)               (None, 86, 158, 8)   0           zero_padding2d_6[0][0]           
__________________________________________________________________________________________________
slice_111 (Slice)               (None, 86, 158, 8)   0           zero_padding2d_6[0][0]           
__________________________________________________________________________________________________
slice_112 (Slice)               (None, 86, 158, 8)   0           zero_padding2d_6[0][0]           
__________________________________________________________________________________________________
slice_113 (Slice)               (None, 86, 158, 8)   0           zero_padding2d_6[0][0]           
__________________________________________________________________________________________________
slice_114 (Slice)               (None, 86, 158, 8)   0           zero_padding2d_6[0][0]           
__________________________________________________________________________________________________
slice_115 (Slice)               (None, 86, 158, 8)   0           zero_padding2d_6[0][0]           
__________________________________________________________________________________________________
slice_116 (Slice)               (None, 86, 158, 8)   0           zero_padding2d_6[0][0]           
__________________________________________________________________________________________________
slice_117 (Slice)               (None, 86, 158, 8)   0           zero_padding2d_6[0][0]           
__________________________________________________________________________________________________
slice_118 (Slice)               (None, 86, 158, 8)   0           zero_padding2d_6[0][0]           
__________________________________________________________________________________________________
slice_119 (Slice)               (None, 86, 158, 8)   0           zero_padding2d_6[0][0]           
__________________________________________________________________________________________________
slice_120 (Slice)               (None, 86, 158, 8)   0           zero_padding2d_6[0][0]           
__________________________________________________________________________________________________
slice_121 (Slice)               (None, 86, 158, 8)   0           zero_padding2d_6[0][0]           
__________________________________________________________________________________________________
slice_122 (Slice)               (None, 86, 158, 8)   0           zero_padding2d_6[0][0]           
__________________________________________________________________________________________________
slice_123 (Slice)               (None, 86, 158, 8)   0           zero_padding2d_6[0][0]           
__________________________________________________________________________________________________
slice_124 (Slice)               (None, 86, 158, 8)   0           zero_padding2d_6[0][0]           
__________________________________________________________________________________________________
slice_125 (Slice)               (None, 86, 158, 8)   0           zero_padding2d_6[0][0]           
__________________________________________________________________________________________________
slice_126 (Slice)               (None, 86, 158, 8)   0           zero_padding2d_6[0][0]           
__________________________________________________________________________________________________
slice_127 (Slice)               (None, 86, 158, 8)   0           zero_padding2d_6[0][0]           
__________________________________________________________________________________________________
slice_128 (Slice)               (None, 86, 158, 8)   0           zero_padding2d_6[0][0]           
__________________________________________________________________________________________________
conv2d_112 (Conv2D)             (None, 42, 78, 8)    576         slice_97[0][0]                   
__________________________________________________________________________________________________
conv2d_113 (Conv2D)             (None, 42, 78, 8)    576         slice_98[0][0]                   
__________________________________________________________________________________________________
conv2d_114 (Conv2D)             (None, 42, 78, 8)    576         slice_99[0][0]                   
__________________________________________________________________________________________________
conv2d_115 (Conv2D)             (None, 42, 78, 8)    576         slice_100[0][0]                  
__________________________________________________________________________________________________
conv2d_116 (Conv2D)             (None, 42, 78, 8)    576         slice_101[0][0]                  
__________________________________________________________________________________________________
conv2d_117 (Conv2D)             (None, 42, 78, 8)    576         slice_102[0][0]                  
__________________________________________________________________________________________________
conv2d_118 (Conv2D)             (None, 42, 78, 8)    576         slice_103[0][0]                  
__________________________________________________________________________________________________
conv2d_119 (Conv2D)             (None, 42, 78, 8)    576         slice_104[0][0]                  
__________________________________________________________________________________________________
conv2d_120 (Conv2D)             (None, 42, 78, 8)    576         slice_105[0][0]                  
__________________________________________________________________________________________________
conv2d_121 (Conv2D)             (None, 42, 78, 8)    576         slice_106[0][0]                  
__________________________________________________________________________________________________
conv2d_122 (Conv2D)             (None, 42, 78, 8)    576         slice_107[0][0]                  
__________________________________________________________________________________________________
conv2d_123 (Conv2D)             (None, 42, 78, 8)    576         slice_108[0][0]                  
__________________________________________________________________________________________________
conv2d_124 (Conv2D)             (None, 42, 78, 8)    576         slice_109[0][0]                  
__________________________________________________________________________________________________
conv2d_125 (Conv2D)             (None, 42, 78, 8)    576         slice_110[0][0]                  
__________________________________________________________________________________________________
conv2d_126 (Conv2D)             (None, 42, 78, 8)    576         slice_111[0][0]                  
__________________________________________________________________________________________________
conv2d_127 (Conv2D)             (None, 42, 78, 8)    576         slice_112[0][0]                  
__________________________________________________________________________________________________
conv2d_128 (Conv2D)             (None, 42, 78, 8)    576         slice_113[0][0]                  
__________________________________________________________________________________________________
conv2d_129 (Conv2D)             (None, 42, 78, 8)    576         slice_114[0][0]                  
__________________________________________________________________________________________________
conv2d_130 (Conv2D)             (None, 42, 78, 8)    576         slice_115[0][0]                  
__________________________________________________________________________________________________
conv2d_131 (Conv2D)             (None, 42, 78, 8)    576         slice_116[0][0]                  
__________________________________________________________________________________________________
conv2d_132 (Conv2D)             (None, 42, 78, 8)    576         slice_117[0][0]                  
__________________________________________________________________________________________________
conv2d_133 (Conv2D)             (None, 42, 78, 8)    576         slice_118[0][0]                  
__________________________________________________________________________________________________
conv2d_134 (Conv2D)             (None, 42, 78, 8)    576         slice_119[0][0]                  
__________________________________________________________________________________________________
conv2d_135 (Conv2D)             (None, 42, 78, 8)    576         slice_120[0][0]                  
__________________________________________________________________________________________________
conv2d_136 (Conv2D)             (None, 42, 78, 8)    576         slice_121[0][0]                  
__________________________________________________________________________________________________
conv2d_137 (Conv2D)             (None, 42, 78, 8)    576         slice_122[0][0]                  
__________________________________________________________________________________________________
conv2d_138 (Conv2D)             (None, 42, 78, 8)    576         slice_123[0][0]                  
__________________________________________________________________________________________________
conv2d_139 (Conv2D)             (None, 42, 78, 8)    576         slice_124[0][0]                  
__________________________________________________________________________________________________
conv2d_140 (Conv2D)             (None, 42, 78, 8)    576         slice_125[0][0]                  
__________________________________________________________________________________________________
conv2d_141 (Conv2D)             (None, 42, 78, 8)    576         slice_126[0][0]                  
__________________________________________________________________________________________________
conv2d_142 (Conv2D)             (None, 42, 78, 8)    576         slice_127[0][0]                  
__________________________________________________________________________________________________
conv2d_143 (Conv2D)             (None, 42, 78, 8)    576         slice_128[0][0]                  
__________________________________________________________________________________________________
concatenate_4 (Concatenate)     (None, 42, 78, 256)  0           conv2d_112[0][0]                 
                                                                 conv2d_113[0][0]                 
                                                                 conv2d_114[0][0]                 
                                                                 conv2d_115[0][0]                 
                                                                 conv2d_116[0][0]                 
…
                                                                 conv2d_139[0][0]                 
                                                                 conv2d_140[0][0]                 
                                                                 conv2d_141[0][0]                 
                                                                 conv2d_142[0][0]                 
                                                                 conv2d_143[0][0]                 
__________________________________________________________________________________________________
batch_normalization_13 (BatchNo (None, 42, 78, 256)  1024        concatenate_4[0][0]              
__________________________________________________________________________________________________
activation_18 (Activation)      (None, 42, 78, 256)  0           batch_normalization_13[0][0]     
__________________________________________________________________________________________________
conv2d_144 (Conv2D)             (None, 42, 78, 512)  131072      activation_18[0][0]              
__________________________________________________________________________________________________
batch_normalization_14 (BatchNo (None, 42, 78, 512)  2048        conv2d_144[0][0]                 
__________________________________________________________________________________________________
lambda_4 (Lambda)               (None, 1, 1, 512)    0           batch_normalization_14[0][0]     
__________________________________________________________________________________________________
conv2d_146 (Conv2D)             (None, 1, 1, 32)     16416       lambda_4[0][0]                   
__________________________________________________________________________________________________
activation_19 (Activation)      (None, 1, 1, 32)     0           conv2d_146[0][0]                 
__________________________________________________________________________________________________
conv2d_147 (Conv2D)             (None, 1, 1, 512)    16896       activation_19[0][0]              
__________________________________________________________________________________________________
activation_20 (Activation)      (None, 1, 1, 512)    0           conv2d_147[0][0]                 
__________________________________________________________________________________________________
conv2d_145 (Conv2D)             (None, 42, 78, 512)  131072      activation_16[0][0]              
__________________________________________________________________________________________________
multiply_4 (Multiply)           (None, 42, 78, 512)  0           batch_normalization_14[0][0]     
                                                                 activation_20[0][0]              
__________________________________________________________________________________________________
batch_normalization_15 (BatchNo (None, 42, 78, 512)  2048        conv2d_145[0][0]                 
__________________________________________________________________________________________________
add_4 (Add)                     (None, 42, 78, 512)  0           multiply_4[0][0]                 
                                                                 batch_normalization_15[0][0]     
__________________________________________________________________________________________________
activation_21 (Activation)      (None, 42, 78, 512)  0           add_4[0][0]                      
__________________________________________________________________________________________________
conv2d_148 (Conv2D)             (None, 42, 78, 256)  131072      activation_21[0][0]              
__________________________________________________________________________________________________
batch_normalization_16 (BatchNo (None, 42, 78, 256)  1024        conv2d_148[0][0]                 
__________________________________________________________________________________________________
activation_22 (Activation)      (None, 42, 78, 256)  0           batch_normalization_16[0][0]     
__________________________________________________________________________________________________
zero_padding2d_7 (ZeroPadding2D (None, 44, 80, 256)  0           activation_22[0][0]              
__________________________________________________________________________________________________
slice_129 (Slice)               (None, 44, 80, 8)    0           zero_padding2d_7[0][0]           
__________________________________________________________________________________________________
slice_130 (Slice)               (None, 44, 80, 8)    0           zero_padding2d_7[0][0]           
__________________________________________________________________________________________________
slice_131 (Slice)               (None, 44, 80, 8)    0           zero_padding2d_7[0][0]           
__________________________________________________________________________________________________
slice_132 (Slice)               (None, 44, 80, 8)    0           zero_padding2d_7[0][0]           
__________________________________________________________________________________________________
slice_133 (Slice)               (None, 44, 80, 8)    0           zero_padding2d_7[0][0]           
__________________________________________________________________________________________________
slice_134 (Slice)               (None, 44, 80, 8)    0           zero_padding2d_7[0][0]           
__________________________________________________________________________________________________
slice_135 (Slice)               (None, 44, 80, 8)    0           zero_padding2d_7[0][0]           
__________________________________________________________________________________________________
slice_136 (Slice)               (None, 44, 80, 8)    0           zero_padding2d_7[0][0]           
__________________________________________________________________________________________________
slice_137 (Slice)               (None, 44, 80, 8)    0           zero_padding2d_7[0][0]           
__________________________________________________________________________________________________
slice_138 (Slice)               (None, 44, 80, 8)    0           zero_padding2d_7[0][0]           
__________________________________________________________________________________________________
slice_139 (Slice)               (None, 44, 80, 8)    0           zero_padding2d_7[0][0]           
__________________________________________________________________________________________________
slice_140 (Slice)               (None, 44, 80, 8)    0           zero_padding2d_7[0][0]           
__________________________________________________________________________________________________
slice_141 (Slice)               (None, 44, 80, 8)    0           zero_padding2d_7[0][0]           
__________________________________________________________________________________________________
slice_142 (Slice)               (None, 44, 80, 8)    0           zero_padding2d_7[0][0]           
__________________________________________________________________________________________________
slice_143 (Slice)               (None, 44, 80, 8)    0           zero_padding2d_7[0][0]           
__________________________________________________________________________________________________
slice_144 (Slice)               (None, 44, 80, 8)    0           zero_padding2d_7[0][0]           
__________________________________________________________________________________________________
slice_145 (Slice)               (None, 44, 80, 8)    0           zero_padding2d_7[0][0]           
__________________________________________________________________________________________________
slice_146 (Slice)               (None, 44, 80, 8)    0           zero_padding2d_7[0][0]           
__________________________________________________________________________________________________
slice_147 (Slice)               (None, 44, 80, 8)    0           zero_padding2d_7[0][0]           
__________________________________________________________________________________________________
slice_148 (Slice)               (None, 44, 80, 8)    0           zero_padding2d_7[0][0]           
__________________________________________________________________________________________________
slice_149 (Slice)               (None, 44, 80, 8)    0           zero_padding2d_7[0][0]           
__________________________________________________________________________________________________
slice_150 (Slice)               (None, 44, 80, 8)    0           zero_padding2d_7[0][0]           
__________________________________________________________________________________________________
slice_151 (Slice)               (None, 44, 80, 8)    0           zero_padding2d_7[0][0]           
__________________________________________________________________________________________________
slice_152 (Slice)               (None, 44, 80, 8)    0           zero_padding2d_7[0][0]           
__________________________________________________________________________________________________
slice_153 (Slice)               (None, 44, 80, 8)    0           zero_padding2d_7[0][0]           
__________________________________________________________________________________________________
slice_154 (Slice)               (None, 44, 80, 8)    0           zero_padding2d_7[0][0]           
__________________________________________________________________________________________________
slice_155 (Slice)               (None, 44, 80, 8)    0           zero_padding2d_7[0][0]           
__________________________________________________________________________________________________
slice_156 (Slice)               (None, 44, 80, 8)    0           zero_padding2d_7[0][0]           
__________________________________________________________________________________________________
slice_157 (Slice)               (None, 44, 80, 8)    0           zero_padding2d_7[0][0]           
__________________________________________________________________________________________________
slice_158 (Slice)               (None, 44, 80, 8)    0           zero_padding2d_7[0][0]           
__________________________________________________________________________________________________
slice_159 (Slice)               (None, 44, 80, 8)    0           zero_padding2d_7[0][0]           
__________________________________________________________________________________________________
slice_160 (Slice)               (None, 44, 80, 8)    0           zero_padding2d_7[0][0]           
__________________________________________________________________________________________________
conv2d_149 (Conv2D)             (None, 42, 78, 8)    576         slice_129[0][0]                  
__________________________________________________________________________________________________
conv2d_150 (Conv2D)             (None, 42, 78, 8)    576         slice_130[0][0]                  
__________________________________________________________________________________________________
conv2d_151 (Conv2D)             (None, 42, 78, 8)    576         slice_131[0][0]                  
__________________________________________________________________________________________________
conv2d_152 (Conv2D)             (None, 42, 78, 8)    576         slice_132[0][0]                  
__________________________________________________________________________________________________
conv2d_153 (Conv2D)             (None, 42, 78, 8)    576         slice_133[0][0]                  
__________________________________________________________________________________________________
conv2d_154 (Conv2D)             (None, 42, 78, 8)    576         slice_134[0][0]                  
__________________________________________________________________________________________________
conv2d_155 (Conv2D)             (None, 42, 78, 8)    576         slice_135[0][0]                  
__________________________________________________________________________________________________
conv2d_156 (Conv2D)             (None, 42, 78, 8)    576         slice_136[0][0]                  
__________________________________________________________________________________________________
conv2d_157 (Conv2D)             (None, 42, 78, 8)    576         slice_137[0][0]                  
__________________________________________________________________________________________________
conv2d_158 (Conv2D)             (None, 42, 78, 8)    576         slice_138[0][0]                  
__________________________________________________________________________________________________
conv2d_159 (Conv2D)             (None, 42, 78, 8)    576         slice_139[0][0]                  
__________________________________________________________________________________________________
conv2d_160 (Conv2D)             (None, 42, 78, 8)    576         slice_140[0][0]                  
__________________________________________________________________________________________________
conv2d_161 (Conv2D)             (None, 42, 78, 8)    576         slice_141[0][0]                  
__________________________________________________________________________________________________
conv2d_162 (Conv2D)             (None, 42, 78, 8)    576         slice_142[0][0]                  
__________________________________________________________________________________________________
conv2d_163 (Conv2D)             (None, 42, 78, 8)    576         slice_143[0][0]                  
__________________________________________________________________________________________________
conv2d_164 (Conv2D)             (None, 42, 78, 8)    576         slice_144[0][0]                  
__________________________________________________________________________________________________
conv2d_165 (Conv2D)             (None, 42, 78, 8)    576         slice_145[0][0]                  
__________________________________________________________________________________________________
conv2d_166 (Conv2D)             (None, 42, 78, 8)    576         slice_146[0][0]                  
__________________________________________________________________________________________________
conv2d_167 (Conv2D)             (None, 42, 78, 8)    576         slice_147[0][0]                  
__________________________________________________________________________________________________
conv2d_168 (Conv2D)             (None, 42, 78, 8)    576         slice_148[0][0]                  
__________________________________________________________________________________________________
conv2d_169 (Conv2D)             (None, 42, 78, 8)    576         slice_149[0][0]                  
__________________________________________________________________________________________________
conv2d_170 (Conv2D)             (None, 42, 78, 8)    576         slice_150[0][0]                  
__________________________________________________________________________________________________
conv2d_171 (Conv2D)             (None, 42, 78, 8)    576         slice_151[0][0]                  
__________________________________________________________________________________________________
conv2d_172 (Conv2D)             (None, 42, 78, 8)    576         slice_152[0][0]                  
__________________________________________________________________________________________________
conv2d_173 (Conv2D)             (None, 42, 78, 8)    576         slice_153[0][0]                  
__________________________________________________________________________________________________
conv2d_174 (Conv2D)             (None, 42, 78, 8)    576         slice_154[0][0]                  
__________________________________________________________________________________________________
conv2d_175 (Conv2D)             (None, 42, 78, 8)    576         slice_155[0][0]                  
__________________________________________________________________________________________________
conv2d_176 (Conv2D)             (None, 42, 78, 8)    576         slice_156[0][0]                  
__________________________________________________________________________________________________
conv2d_177 (Conv2D)             (None, 42, 78, 8)    576         slice_157[0][0]                  
__________________________________________________________________________________________________
conv2d_178 (Conv2D)             (None, 42, 78, 8)    576         slice_158[0][0]                  
__________________________________________________________________________________________________
conv2d_179 (Conv2D)             (None, 42, 78, 8)    576         slice_159[0][0]                  
__________________________________________________________________________________________________
conv2d_180 (Conv2D)             (None, 42, 78, 8)    576         slice_160[0][0]                  
__________________________________________________________________________________________________
concatenate_5 (Concatenate)     (None, 42, 78, 256)  0           conv2d_149[0][0]                 
                                                                 conv2d_150[0][0]                 
                                                                 conv2d_151[0][0]                 
                                                                 conv2d_152[0][0]                 
                                                                 conv2d_153[0][0]                 
…
                                                                 conv2d_176[0][0]                 
                                                                 conv2d_177[0][0]                 
                                                                 conv2d_178[0][0]                 
                                                                 conv2d_179[0][0]                 
                                                                 conv2d_180[0][0]                 
__________________________________________________________________________________________________
batch_normalization_17 (BatchNo (None, 42, 78, 256)  1024        concatenate_5[0][0]              
__________________________________________________________________________________________________
activation_23 (Activation)      (None, 42, 78, 256)  0           batch_normalization_17[0][0]     
__________________________________________________________________________________________________
conv2d_181 (Conv2D)             (None, 42, 78, 512)  131072      activation_23[0][0]              
__________________________________________________________________________________________________
batch_normalization_18 (BatchNo (None, 42, 78, 512)  2048        conv2d_181[0][0]                 
__________________________________________________________________________________________________
lambda_5 (Lambda)               (None, 1, 1, 512)    0           batch_normalization_18[0][0]     
__________________________________________________________________________________________________
conv2d_182 (Conv2D)             (None, 1, 1, 32)     16416       lambda_5[0][0]                   
__________________________________________________________________________________________________
activation_24 (Activation)      (None, 1, 1, 32)     0           conv2d_182[0][0]                 
__________________________________________________________________________________________________
conv2d_183 (Conv2D)             (None, 1, 1, 512)    16896       activation_24[0][0]              
__________________________________________________________________________________________________
activation_25 (Activation)      (None, 1, 1, 512)    0           conv2d_183[0][0]                 
__________________________________________________________________________________________________
multiply_5 (Multiply)           (None, 42, 78, 512)  0           batch_normalization_18[0][0]     
                                                                 activation_25[0][0]              
__________________________________________________________________________________________________
add_5 (Add)                     (None, 42, 78, 512)  0           multiply_5[0][0]                 
                                                                 activation_21[0][0]              
__________________________________________________________________________________________________
activation_26 (Activation)      (None, 42, 78, 512)  0           add_5[0][0]                      
__________________________________________________________________________________________________
conv2d_184 (Conv2D)             (None, 42, 78, 256)  131072      activation_26[0][0]              
__________________________________________________________________________________________________
batch_normalization_19 (BatchNo (None, 42, 78, 256)  1024        conv2d_184[0][0]                 
__________________________________________________________________________________________________
activation_27 (Activation)      (None, 42, 78, 256)  0           batch_normalization_19[0][0]     
__________________________________________________________________________________________________
zero_padding2d_8 (ZeroPadding2D (None, 44, 80, 256)  0           activation_27[0][0]              
__________________________________________________________________________________________________
slice_161 (Slice)               (None, 44, 80, 8)    0           zero_padding2d_8[0][0]           
__________________________________________________________________________________________________
slice_162 (Slice)               (None, 44, 80, 8)    0           zero_padding2d_8[0][0]           
__________________________________________________________________________________________________
slice_163 (Slice)               (None, 44, 80, 8)    0           zero_padding2d_8[0][0]           
__________________________________________________________________________________________________
slice_164 (Slice)               (None, 44, 80, 8)    0           zero_padding2d_8[0][0]           
__________________________________________________________________________________________________
slice_165 (Slice)               (None, 44, 80, 8)    0           zero_padding2d_8[0][0]           
__________________________________________________________________________________________________
slice_166 (Slice)               (None, 44, 80, 8)    0           zero_padding2d_8[0][0]           
__________________________________________________________________________________________________
slice_167 (Slice)               (None, 44, 80, 8)    0           zero_padding2d_8[0][0]           
__________________________________________________________________________________________________
slice_168 (Slice)               (None, 44, 80, 8)    0           zero_padding2d_8[0][0]           
__________________________________________________________________________________________________
slice_169 (Slice)               (None, 44, 80, 8)    0           zero_padding2d_8[0][0]           
__________________________________________________________________________________________________
slice_170 (Slice)               (None, 44, 80, 8)    0           zero_padding2d_8[0][0]           
__________________________________________________________________________________________________
slice_171 (Slice)               (None, 44, 80, 8)    0           zero_padding2d_8[0][0]           
__________________________________________________________________________________________________
slice_172 (Slice)               (None, 44, 80, 8)    0           zero_padding2d_8[0][0]           
__________________________________________________________________________________________________
slice_173 (Slice)               (None, 44, 80, 8)    0           zero_padding2d_8[0][0]           
__________________________________________________________________________________________________
slice_174 (Slice)               (None, 44, 80, 8)    0           zero_padding2d_8[0][0]           
__________________________________________________________________________________________________
slice_175 (Slice)               (None, 44, 80, 8)    0           zero_padding2d_8[0][0]           
__________________________________________________________________________________________________
slice_176 (Slice)               (None, 44, 80, 8)    0           zero_padding2d_8[0][0]           
__________________________________________________________________________________________________
slice_177 (Slice)               (None, 44, 80, 8)    0           zero_padding2d_8[0][0]           
__________________________________________________________________________________________________
slice_178 (Slice)               (None, 44, 80, 8)    0           zero_padding2d_8[0][0]           
__________________________________________________________________________________________________
slice_179 (Slice)               (None, 44, 80, 8)    0           zero_padding2d_8[0][0]           
__________________________________________________________________________________________________
slice_180 (Slice)               (None, 44, 80, 8)    0           zero_padding2d_8[0][0]           
__________________________________________________________________________________________________
slice_181 (Slice)               (None, 44, 80, 8)    0           zero_padding2d_8[0][0]           
__________________________________________________________________________________________________
slice_182 (Slice)               (None, 44, 80, 8)    0           zero_padding2d_8[0][0]           
__________________________________________________________________________________________________
slice_183 (Slice)               (None, 44, 80, 8)    0           zero_padding2d_8[0][0]           
__________________________________________________________________________________________________
slice_184 (Slice)               (None, 44, 80, 8)    0           zero_padding2d_8[0][0]           
__________________________________________________________________________________________________
slice_185 (Slice)               (None, 44, 80, 8)    0           zero_padding2d_8[0][0]           
__________________________________________________________________________________________________
slice_186 (Slice)               (None, 44, 80, 8)    0           zero_padding2d_8[0][0]           
__________________________________________________________________________________________________
slice_187 (Slice)               (None, 44, 80, 8)    0           zero_padding2d_8[0][0]           
__________________________________________________________________________________________________
slice_188 (Slice)               (None, 44, 80, 8)    0           zero_padding2d_8[0][0]           
__________________________________________________________________________________________________
slice_189 (Slice)               (None, 44, 80, 8)    0           zero_padding2d_8[0][0]           
__________________________________________________________________________________________________
slice_190 (Slice)               (None, 44, 80, 8)    0           zero_padding2d_8[0][0]           
__________________________________________________________________________________________________
slice_191 (Slice)               (None, 44, 80, 8)    0           zero_padding2d_8[0][0]           
__________________________________________________________________________________________________
slice_192 (Slice)               (None, 44, 80, 8)    0           zero_padding2d_8[0][0]           
__________________________________________________________________________________________________
conv2d_185 (Conv2D)             (None, 42, 78, 8)    576         slice_161[0][0]                  
__________________________________________________________________________________________________
conv2d_186 (Conv2D)             (None, 42, 78, 8)    576         slice_162[0][0]                  
__________________________________________________________________________________________________
conv2d_187 (Conv2D)             (None, 42, 78, 8)    576         slice_163[0][0]                  
__________________________________________________________________________________________________
conv2d_188 (Conv2D)             (None, 42, 78, 8)    576         slice_164[0][0]                  
__________________________________________________________________________________________________
conv2d_189 (Conv2D)             (None, 42, 78, 8)    576         slice_165[0][0]                  
__________________________________________________________________________________________________
conv2d_190 (Conv2D)             (None, 42, 78, 8)    576         slice_166[0][0]                  
__________________________________________________________________________________________________
conv2d_191 (Conv2D)             (None, 42, 78, 8)    576         slice_167[0][0]                  
__________________________________________________________________________________________________
conv2d_192 (Conv2D)             (None, 42, 78, 8)    576         slice_168[0][0]                  
__________________________________________________________________________________________________
conv2d_193 (Conv2D)             (None, 42, 78, 8)    576         slice_169[0][0]                  
__________________________________________________________________________________________________
conv2d_194 (Conv2D)             (None, 42, 78, 8)    576         slice_170[0][0]                  
__________________________________________________________________________________________________
conv2d_195 (Conv2D)             (None, 42, 78, 8)    576         slice_171[0][0]                  
__________________________________________________________________________________________________
conv2d_196 (Conv2D)             (None, 42, 78, 8)    576         slice_172[0][0]                  
__________________________________________________________________________________________________
conv2d_197 (Conv2D)             (None, 42, 78, 8)    576         slice_173[0][0]                  
__________________________________________________________________________________________________
conv2d_198 (Conv2D)             (None, 42, 78, 8)    576         slice_174[0][0]                  
__________________________________________________________________________________________________
conv2d_199 (Conv2D)             (None, 42, 78, 8)    576         slice_175[0][0]                  
__________________________________________________________________________________________________
conv2d_200 (Conv2D)             (None, 42, 78, 8)    576         slice_176[0][0]                  
__________________________________________________________________________________________________
conv2d_201 (Conv2D)             (None, 42, 78, 8)    576         slice_177[0][0]                  
__________________________________________________________________________________________________
conv2d_202 (Conv2D)             (None, 42, 78, 8)    576         slice_178[0][0]                  
__________________________________________________________________________________________________
conv2d_203 (Conv2D)             (None, 42, 78, 8)    576         slice_179[0][0]                  
__________________________________________________________________________________________________
conv2d_204 (Conv2D)             (None, 42, 78, 8)    576         slice_180[0][0]                  
__________________________________________________________________________________________________
conv2d_205 (Conv2D)             (None, 42, 78, 8)    576         slice_181[0][0]                  
__________________________________________________________________________________________________
conv2d_206 (Conv2D)             (None, 42, 78, 8)    576         slice_182[0][0]                  
__________________________________________________________________________________________________
conv2d_207 (Conv2D)             (None, 42, 78, 8)    576         slice_183[0][0]                  
__________________________________________________________________________________________________
conv2d_208 (Conv2D)             (None, 42, 78, 8)    576         slice_184[0][0]                  
__________________________________________________________________________________________________
conv2d_209 (Conv2D)             (None, 42, 78, 8)    576         slice_185[0][0]                  
__________________________________________________________________________________________________
conv2d_210 (Conv2D)             (None, 42, 78, 8)    576         slice_186[0][0]                  
__________________________________________________________________________________________________
conv2d_211 (Conv2D)             (None, 42, 78, 8)    576         slice_187[0][0]                  
__________________________________________________________________________________________________
conv2d_212 (Conv2D)             (None, 42, 78, 8)    576         slice_188[0][0]                  
__________________________________________________________________________________________________
conv2d_213 (Conv2D)             (None, 42, 78, 8)    576         slice_189[0][0]                  
__________________________________________________________________________________________________
conv2d_214 (Conv2D)             (None, 42, 78, 8)    576         slice_190[0][0]                  
__________________________________________________________________________________________________
conv2d_215 (Conv2D)             (None, 42, 78, 8)    576         slice_191[0][0]                  
__________________________________________________________________________________________________
conv2d_216 (Conv2D)             (None, 42, 78, 8)    576         slice_192[0][0]                  
__________________________________________________________________________________________________
concatenate_6 (Concatenate)     (None, 42, 78, 256)  0           conv2d_185[0][0]                 
                                                                 conv2d_186[0][0]                 
                                                                 conv2d_187[0][0]                 
                                                                 conv2d_188[0][0]                 
                                                                 conv2d_189[0][0]                 
…
                                                                 conv2d_248[0][0]                 
                                                                 conv2d_249[0][0]                 
                                                                 conv2d_250[0][0]                 
                                                                 conv2d_251[0][0]                 
                                                                 conv2d_252[0][0]                 
__________________________________________________________________________________________________
batch_normalization_23 (BatchNo (None, 42, 78, 256)  1024        concatenate_7[0][0]              
__________________________________________________________________________________________________
activation_33 (Activation)      (None, 42, 78, 256)  0           batch_normalization_23[0][0]     
__________________________________________________________________________________________________
conv2d_253 (Conv2D)             (None, 42, 78, 512)  131072      activation_33[0][0]              
__________________________________________________________________________________________________
batch_normalization_24 (BatchNo (None, 42, 78, 512)  2048        conv2d_253[0][0]                 
__________________________________________________________________________________________________
lambda_7 (Lambda)               (None, 1, 1, 512)    0           batch_normalization_24[0][0]     
__________________________________________________________________________________________________
conv2d_254 (Conv2D)             (None, 1, 1, 32)     16416       lambda_7[0][0]                   
__________________________________________________________________________________________________
activation_34 (Activation)      (None, 1, 1, 32)     0           conv2d_254[0][0]                 
__________________________________________________________________________________________________
conv2d_255 (Conv2D)             (None, 1, 1, 512)    16896       activation_34[0][0]              
__________________________________________________________________________________________________
activation_35 (Activation)      (None, 1, 1, 512)    0           conv2d_255[0][0]                 
__________________________________________________________________________________________________
multiply_7 (Multiply)           (None, 42, 78, 512)  0           batch_normalization_24[0][0]     
                                                                 activation_35[0][0]              
__________________________________________________________________________________________________
add_7 (Add)                     (None, 42, 78, 512)  0           multiply_7[0][0]                 
                                                                 activation_31[0][0]              
__________________________________________________________________________________________________
activation_36 (Activation)      (None, 42, 78, 512)  0           add_7[0][0]                      
__________________________________________________________________________________________________
average_pooling2d_1 (AveragePoo (None, 1, 1, 512)    0           activation_36[0][0]              
__________________________________________________________________________________________________
average_pooling2d_2 (AveragePoo (None, 2, 2, 512)    0           activation_36[0][0]              
__________________________________________________________________________________________________
average_pooling2d_3 (AveragePoo (None, 3, 3, 512)    0           activation_36[0][0]              
__________________________________________________________________________________________________
average_pooling2d_4 (AveragePoo (None, 6, 6, 512)    0           activation_36[0][0]              
__________________________________________________________________________________________________
level1_conv (Conv2D)            (None, 1, 1, 512)    262144      average_pooling2d_1[0][0]        
__________________________________________________________________________________________________
level2_conv (Conv2D)            (None, 2, 2, 512)    262144      average_pooling2d_2[0][0]        
__________________________________________________________________________________________________
level3_conv (Conv2D)            (None, 3, 3, 512)    262144      average_pooling2d_3[0][0]        
__________________________________________________________________________________________________
level6_conv (Conv2D)            (None, 6, 6, 512)    262144      average_pooling2d_4[0][0]        
__________________________________________________________________________________________________
level1_bn (BatchNormalization)  (None, 1, 1, 512)    2048        level1_conv[0][0]                
__________________________________________________________________________________________________
level2_bn (BatchNormalization)  (None, 2, 2, 512)    2048        level2_conv[0][0]                
__________________________________________________________________________________________________
level3_bn (BatchNormalization)  (None, 3, 3, 512)    2048        level3_conv[0][0]                
__________________________________________________________________________________________________
level6_bn (BatchNormalization)  (None, 6, 6, 512)    2048        level6_conv[0][0]                
__________________________________________________________________________________________________
level1_relu (Activation)        (None, 1, 1, 512)    0           level1_bn[0][0]                  
__________________________________________________________________________________________________
level2_relu (Activation)        (None, 2, 2, 512)    0           level2_bn[0][0]                  
__________________________________________________________________________________________________
level3_relu (Activation)        (None, 3, 3, 512)    0           level3_bn[0][0]                  
__________________________________________________________________________________________________
level6_relu (Activation)        (None, 6, 6, 512)    0           level6_bn[0][0]                  
__________________________________________________________________________________________________
resize_image_1 (ResizeImage)    (None, 42, 78, 512)  0           level1_relu[0][0]                
__________________________________________________________________________________________________
resize_image_2 (ResizeImage)    (None, 42, 78, 512)  0           level2_relu[0][0]                
__________________________________________________________________________________________________
resize_image_3 (ResizeImage)    (None, 42, 78, 512)  0           level3_relu[0][0]                
__________________________________________________________________________________________________
resize_image_4 (ResizeImage)    (None, 42, 78, 512)  0           level6_relu[0][0]                
__________________________________________________________________________________________________
concatenate_34 (Concatenate)    (None, 42, 78, 2560) 0           activation_36[0][0]              
                                                                 resize_image_1[0][0]             
                                                                 resize_image_2[0][0]             
                                                                 resize_image_3[0][0]             
                                                                 resize_image_4[0][0]             
__________________________________________________________________________________________________
conv_block_conv (Conv2D)        (None, 42, 78, 512)  1310720     concatenate_34[0][0]             
__________________________________________________________________________________________________
conv_block_bn (BatchNormalizati (None, 42, 78, 512)  2048        conv_block_conv[0][0]            
__________________________________________________________________________________________________
conv_block_relu (Activation)    (None, 42, 78, 512)  0           conv_block_bn[0][0]              
__________________________________________________________________________________________________
final_conv (Conv2D)             (None, 42, 78, 3)    13827       conv_block_relu[0][0]            
__________________________________________________________________________________________________
resize_image_5 (ResizeImage)    (None, 336, 624, 3)  0           final_conv[0][0]                 
__________________________________________________________________________________________________
softmax (Activation)            (None, 336, 624, 3)  0           resize_image_5[0][0]             
==================================================================================================
Total params: 3,967,347
Trainable params: 3,949,299
Non-trainable params: 18,048
__________________________________________________________________________________________________
Optimizer: <keras.optimizers.Adam object at 0x7f9aa81d04a8>, learning rate: 0.0001, loss: [<function dice_coef_multiclass_loss at 0x7f9af63e56a8>], metrics: ['categorical_accuracy']
…
